…
 , name = 'relu1' ), Dense ( 256 , name = 'dense2' ), Activation ( 'relu' , name = 'relu2' ), Dense ( 128 , name = 'dense3' ), Activation ( 'relu' ), Dense ( 10 , name = 'logits' ), Activation ( 'softmax' , name = 'clf' ) ], name = 'SeqAPI' ) Combien de param\u00e8tres ce mod\u00e8les poss\u00e8de-t-il ? TensorFlow 1 model . summary () 1 2 3 4 5 6 7 8 9 10 11 12 13 14 15 16 17 18 19 20 21 22 23 24 Model: \"SeqAPI\" _________________________________________________________________ Layer (type) Output Shape Param # ================================================================= dense1 (Dense) (None, 256) 200960 _________________________________________________________________ relu1 (Activation) (None, 256) 0 _________________________________________________________________ dense2 (Dense) (None, 256) 65792 _________________________________________________________________ relu2 (Activation) (None, 256) 0 _________________________________________________________________ dense3 (Dense) (None, 128) 32896 _________________________________________________________________ activation_6 (Activation) (None, 128) 0 _________________________________________________________________ logits (Dense) (None, 10) 1290 _________________________________________________________________ clf (Activation) (None, 10) 0 ================================================================= Total params: 300,938 Trainable params: 300,938 Non-trainable params: 0 _________________________________________________________________ Refaire le m\u00eame mod\u00e8le avec l'API fonctionnelle. TensorFlow 1 2 3 4 5 6 7 8 9 10 11 inputs = Input ( shape = ( 784 ,), name = 'Input' ) dns1 = Dense ( 256 , name = 'dense1' )( inputs ) 
…
, activation = 'relu' , padding = 'same' ), Conv2D ( 256 , ( 3 , 3 ), activation = 'relu' , padding = 'same' ), MaxPooling2D (( 2 , 2 )), Flatten (), Dense ( 256 ), Activation ( 'relu' ), Dense ( 128 ), Activation ( 'relu' ), Dense ( 10 , activation = 'softmax' ) ]) model2 . summary () 1 2 3 4 5 6 7 8 9 10 11 12 13 14 15 16 17 18 19 20 21 22 23 24 25 26 27 28 29 30 31 32 33 34 35 36 37 38 Model: \"sequential_2\" _________________________________________________________________ Layer (type) Output Shape Param # ================================================================= conv2d_8 (Conv2D) (None, 32, 32, 32) 896 _________________________________________________________________ conv2d_9 (Conv2D) (None, 32, 32, 64) 18496 _________________________________________________________________ max_pooling2d_8 (MaxPooling2 (None, 16, 16, 64) 0 _________________________________________________________________ conv2d_10 (Conv2D) (None, 16, 16, 128) 73856 _________________________________________________________________ conv2d_11 (Conv2D) (None, 16, 16, 128) 147584 _________________________________________________________________ max_pooling2d_9 (MaxPooling2 (None, 8, 8, 128) 0 _________________________________________________________________ conv2d_12 (Conv2D) (None, 8, 8, 256) 295168 _________________________________________________________________ conv2d_13 (Conv2D) (None, 8, 8, 256) 590080 _________________________________________________________________ max_pooling2d_10 (MaxPooling (None, 4, 4, 256) 0 _________________________________________________________________ flatten_2 (Flatten) (None, 4096) 0 _________________________________________________________________ dense_2 (Dense) (None, 256) 1048832 _________________________________________________________________ activation_4 (Activation) (None, 256) 0 _________________________________________________________________ dense_3 (Dense) (None, 128) 32896 _________________________________________________________________ activation_5 (Activation) (None, 128) 0 _________________________________________________________________ dense_4 (Dense) (None, 10) 1290 ================================================================= Total params: 2,209,098 Trainable params: 2,209,098 Non-trainable params: 0 _________________________________________________________________ 1 2 3 4 5 6 7 8 model2 . compile ( loss = 'categorical_crossentropy' , optimizer = tf . keras . optimizers . SGD ( lr = 0.001 ), metrics = [ 'accuracy' ]) history = model2 . fit ( X_train , y
…
. flow_from_directory ( validation_dir , target_size = ( 224 , 224 ), batch_size = 32 , class_mode = 'categorical' ) 1 2 3 4 vgg_tf= vgg_model(input_size = 224, num_classes= 5) vgg_tf.summary() Downloading data from https://storage.googleapis.com/tensorflow/keras-applications/vgg16/vgg16_weights_tf_dim_ordering_tf_kernels_notop.h5 58892288/58889256 [==============================] - 1s 0us/step Model: \"sequential\" _________________________________________________________________ Layer (type) Output Shape Param # ================================================================= vgg16 (Model) (None, 7, 7, 512) 14714688 _________________________________________________________________ flatten (Flatten) (None, 25088) 0 _________________________________________________________________ dense (Dense) (None, 256) 6422784 _________________________________________________________________ dense_1 (Dense) (None, 128) 32896 _________________________________________________________________ dense_2 (Dense) (None, 5) 645 ================================================================= Total params: 21,171,013 Trainable params: 6,456,325 Non-trainable params: 14,714,688 _________________________________________________________________ Dans le cas o\u00f9 les donn\u00e9es sont sotck\u00e9es sous la forme de fichiers plats, Tensorflow sait le nombre d'\u00e9tapes par \u00e9poques \u00e0 effectuer. Avec un g\u00e9n\
…
 2)), Conv2D(128, (3, 3), activation='relu', padding='same'), Conv2D(128, (3, 3), activation='relu', padding='same'), MaxPooling2D((2, 2)), Flatten(), Dense(256), Activation('relu'), Dense(128), Activation('relu'), Dense(10, activation='softmax') ]) model.compile(loss = 'categorical_crossentropy', optimizer=optimizer, metrics=['accuracy']) return model 1 2 model = base_model() model.summary() Model: \"sequential\" _________________________________________________________________ Layer (type) Output Shape Param # ================================================================= conv2d (Conv2D) (None, 28, 28, 32) 320 _________________________________________________________________ conv2d_1 (Conv2D) (None, 28, 28, 64) 18496 _________________________________________________________________ max_pooling2d (MaxPooling2D) (None, 14, 14, 64) 0 _________________________________________________________________ conv2d_2 (Conv2D) (None, 14, 14, 128) 73856 _________________________________________________________________ conv2d_3 (Conv2D) (None, 14, 14, 128) 147584 _________________________________________________________________ max_pooling2d_1 (MaxPooling2 (None, 7, 7, 128) 0 _________________________________________________________________ flatten (Flatten) (None, 6272) 0 _________________________________________________________________ dense (Dense) (None, 256) 1605888 _________________________________________________________________ activation (Activation) (None, 256) 0 _________________________________________________________________ dense_1 (Dense) (None, 128) 32896 _________________________________________________________________ activation_1 (Activation) (None, 128) 0 _________________________________________________________________ dense_2 (Dense) (None, 10) 1290 ================================================================= Total params: 1,880,330 Trainable params: 1,880,330 Non-trainable params: 0 _________________________________________________________________ 1 2 3 4 5 6 7 8 logdir = os.path.join(\"logs\", datetime.datetime.now().strftime(\"%Y%m%d-%H%M%S\")) tensorboard_callback = tf.keras.callbacks.TensorBoard(logdir, histogram_freq=1) history = 
…
'relu', padding='same'), Conv2D(128, (3, 3), activation='relu', padding='same',use_bias=False), BatchNormalization(), MaxPooling2D((2, 2)), Flatten(), Dense(256), Activation('relu'), Dense(128), Activation('relu'), Dense(10, activation='softmax') ]) 1 2 3 4 5 model.summary() model.compile(loss = 'categorical_crossentropy', optimizer=tf.keras.optimizers.SGD(lr=0.001), metrics=['accuracy']) Model: \"sequential_1\" _________________________________________________________________ Layer (type) Output Shape Param # ================================================================= conv2d_4 (Conv2D) (None, 28, 28, 32) 320 _________________________________________________________________ conv2d_5 (Conv2D) (None, 28, 28, 64) 18432 _________________________________________________________________ batch_normalization (BatchNo (None, 28, 28, 64) 256 _________________________________________________________________ max_pooling2d_2 (MaxPooling2 (None, 14, 14, 64) 0 _________________________________________________________________ conv2d_6 (Conv2D) (None, 14, 14, 128) 73856 _________________________________________________________________ conv2d_7 (Conv2D) (None, 14, 14, 128) 147456 _________________________________________________________________ batch_normalization_1 (Batch (None, 14, 14, 128) 512 _________________________________________________________________ max_pooling2d_3 (MaxPooling2 (None, 7, 7, 128) 0 _________________________________________________________________ flatten_1 (Flatten) (None, 6272) 0 _________________________________________________________________ dense_3 (Dense) (None, 256) 1605888 _________________________________________________________________ activation_2 (Activation) (None, 256) 0 _________________________________________________________________ dense_4 (Dense) (None, 128) 32896 _________________________________________________________________ activation_3 (Activation) (None, 128) 0 _________________________________________________________________ dense_5 (Dense) (None, 10) 1290 ================================================================= Total params: 1,880,906 Trainable params: 1,880,522 Non-trainable params: 384 _________________________________________________________________ 1 2 bn1 = model.layers[2] [(var.name, var.trainable) for var in bn1.variables] [('batch_normalization_6/gamma:0', True), ('batch_normalization_6/beta:0', True), ('batch_normalization_6/movi
…
elu', padding='same'), Conv2D(128, (3, 3), padding='same',use_bias=False), BatchNormalization(), Activation('relu'), MaxPooling2D((2, 2)), Flatten(), Dense(256), Activation('relu'), Dense(128), Activation('relu'), Dense(10, activation='softmax') ]) 1 2 3 4 5 model.summary() model.compile(loss = 'categorical_crossentropy', optimizer=tf.keras.optimizers.SGD(lr=0.001), metrics=['accuracy']) Model: \"sequential_6\" _________________________________________________________________ Layer (type) Output Shape Param # ================================================================= conv2d_30 (Conv2D) (None, 28, 28, 32) 320 _________________________________________________________________ conv2d_31 (Conv2D) (None, 28, 28, 64) 18432 _________________________________________________________________ batch_normalization_8 (Batch (None, 28, 28, 64) 256 _________________________________________________________________ activation_15 (Activation) (None, 28, 28, 64) 0 _________________________________________________________________ max_pooling2d_15 (MaxPooling (None, 14, 14, 64) 0 _________________________________________________________________ conv2d_32 (Conv2D) (None, 14, 14, 128) 73856 _________________________________________________________________ conv2d_33 (Conv2D) (None, 14, 14, 128) 147456 _________________________________________________________________ batch_normalization_9 (Batch (None, 14, 14, 128) 512 _________________________________________________________________ activation_16 (Activation) (None, 14, 14, 128) 0 _________________________________________________________________ max_pooling2d_16 (MaxPooling (None, 7, 7, 128) 0 _________________________________________________________________ flatten_6 (Flatten) (None, 6272) 0 _________________________________________________________________ dense_18 (Dense) (None, 256) 1605888 _________________________________________________________________ activation_17 (Activation) (None, 256) 0 _________________________________________________________________ dense_19 (Dense) (None, 128) 32896 _________________________________________________________________ activation_18 (Activation) (None, 128) 0 _________________________________________________________________ dense_20 (Dense) (None, 10) 1290 ================================================================= Total params: 1,880,906 Trainable params: 1,880,522 Non-trainable params: 384 _________________________________________________________________ 1 2 3 4 history = model.fit(X_train, y_train_oh, epochs = 20, batch_size=64, validation_data=(X_valid, y_valid_oh)) Epoch 1/20 704/704 [==============================] - 8s 11ms/step - loss
…
adding='same'), Conv2D(128, (3, 3), activation='relu', padding='same'), MaxPooling2D((2, 2)), Flatten(), Dense(256), Dropout(0.25), Activation('relu'), Dense(128), Dropout(0.25), Activation('relu'), Dense(10), Activation('softmax') ]) 1 2 3 4 5 model.summary() model.compile(loss = tf.keras.losses.CategoricalCrossentropy(), optimizer=tf.keras.optimizers.SGD(lr=0.001), metrics=['accuracy']) Model: \"sequential_1\" _________________________________________________________________ Layer (type) Output Shape Param # ================================================================= conv2d_4 (Conv2D) (None, 28, 28, 32) 320 _________________________________________________________________ conv2d_5 (Conv2D) (None, 28, 28, 64) 18496 _________________________________________________________________ max_pooling2d_2 (MaxPooling2 (None, 14, 14, 64) 0 _________________________________________________________________ conv2d_6 (Conv2D) (None, 14, 14, 128) 73856 _________________________________________________________________ conv2d_7 (Conv2D) (None, 14, 14, 128) 147584 _________________________________________________________________ max_pooling2d_3 (MaxPooling2 (None, 7, 7, 128) 0 _________________________________________________________________ flatten_1 (Flatten) (None, 6272) 0 _________________________________________________________________ dense_3 (Dense) (None, 256) 1605888 _________________________________________________________________ dropout_2 (Dropout) (None, 256) 0 _________________________________________________________________ activation_2 (Activation) (None, 256) 0 _________________________________________________________________ dense_4 (Dense) (None, 128) 32896 _________________________________________________________________ dropout_3 (Dropout) (None, 128) 0 _________________________________________________________________ activation_3 (Activation) (None, 128) 0 _________________________________________________________________ dense_5 (Dense) (None, 10) 1290 _________________________________________________________________ activation_4 (Activation) (None, 10) 0 ================================================================= Total params: 1,880,330 Trainable params: 1,880,330 Non-trainable params: 0 _________________________________________________________________ 1 2 3 4 history = model.fit(X_train, y_train_oh, epochs = 20, batch_size=64, validation_data=(X_valid, y_valid_oh)) Epoch 1/20 704/704 [==============================] - 8s 12ms/step - loss: 
…
we use Global x = Dense(100)(x) output = Activation('softmax')(x) # [3]: 1000-d fc, softmax from tensorflow.keras import Model model = Model(input, output) 1 model.summary() Model: \"model_2\" __________________________________________________________________________________________________ Layer (type) Output Shape Param # Connected to ================================================================================================== input_4 (InputLayer) [(None, 32, 32, 3)] 0 __________________________________________________________________________________________________ conv2d_167 (Conv2D) (None, 16, 16, 64) 9408 input_4[0][0] __________________________________________________________________________________________________ batch_normalization_166 (BatchN (None, 16, 16, 64) 256 conv2d_167[0][0] __________________________________________________________________________________________________ re_lu_152 (ReLU) (None, 16, 16, 64) 0 batch_normalization_166[0][0] __________________________________________________________________________________________________ max_pooling2d_3 (MaxPooling2D) (None, 8, 8, 64) 0 re_lu_152[0][0] __________________________________________________________________________________________________ conv2d_168 (Conv2D) (None, 8, 8, 64) 4096 max_pooling2d_3[0][0] __________________________________________________________________________________________________ batch_normalization_167 (BatchN (None, 8, 8, 64) 256 conv2d_168[0][0] __________________________________________________________________________________________________ re_lu_153 (ReLU) (None, 8, 8, 64) 0 batch_normalization_167[0][0] __________________________________________________________________________________________________ conv2d_169 (Conv2D) (None, 8, 8, 64) 36864 re_lu_153[0][0] __________________________________________________________________________________________________ batch_normalization_168 (BatchN (None, 8, 8, 64) 256 conv2d_169[0][0] __________________________________________________________________________________________________ re_lu_154 (ReLU) (None, 8, 8, 64) 0 batch_normalization_168[0][0] __________________________________________________________________________________________________ conv2d_170 (Conv2D) (None, 8, 8, 256) 16640 re_lu_154[0][0] __________________________________________________________________________________________________ conv2d_171 (Conv2D) (None, 8, 8, 256) 16640 max_pooling2d_3[0][0] __________________________________________________________________________________________________ batch_normalization_169 (BatchN (None, 8, 8, 256) 1024 conv2d_170[0][0] __________________________________________________________________________________________________ batch_normalization_170 (BatchN (None, 8, 8, 256) 1024 conv2d_171[0][0] __________________________________________________________________________________________________ add_50 (Add) (None, 8, 8, 256) 0 batch_normalization_169[0][0] batch_normalization_170[0][0] __________________________________________________________________________________________________ re_lu_155 (ReLU) (None, 8, 8, 256) 0 add_50[0][0] __________________________________________________________________________________________________ conv2d_172 (Conv2D) (None, 8, 8, 64) 16384 re_lu_155[0][0] __________________________________________________________________________________________________ batch_normalization_171 (BatchN (None, 8, 8, 64) 256 conv2d_172[0][0] __________________________________________________________________________________________________ re_lu_156 (ReLU) (None, 8, 8, 64) 0 batch_normalization_171[0][0] __________________________________________________________________________________________________ conv2d_173 (Conv2D) (None, 8, 8, 64) 36864 re_lu_156[0][0] __________________________________________________________________________________________________ batch_normalization_172 (BatchN (None, 8, 8, 64) 256 conv2d_173[0][0] __________________________________________________________________________________________________ re_lu_157 (ReLU) (None, 8, 8, 64) 0 batch_normalization_172[0][0] __________________________________________________________________________________________________ conv2d_174 (Conv2D) (None, 8, 8, 256) 16640 re_lu_157[0][0] __________________________________________________________________________________________________ batch_normalization_173 (BatchN (None, 8, 8, 256) 1024 conv2d_174[0][0] __________________________________________________________________________________________________ add_51 (Add) (None, 8, 8, 256) 0 batch_normalization_173[0][0] re_lu_155[0][0] __________________________________________________________________________________________________ re_lu_158 (ReLU) (None, 8, 8, 256) 0 add_51[0][0] __________________________________________________________________________________________________ conv2d_175 (Conv2D) (None, 8, 8, 64) 16384 re_lu_158[0][0] __________________________________________________________________________________________________ batch_normalization_174 (BatchN (None, 8, 8, 64) 256 conv2d_175[0][0] __________________________________________________________________________________________________ re_lu_159 (ReLU) (None, 8, 8, 64) 0 batch_normalization_174[0][0] __________________________________________________________________________________________________ conv2d_176 (Conv2D) (None, 8, 8, 64) 36864 re_lu_159[0][0] __________________________________________________________________________________________________ batch_normalization_175 (BatchN (None, 8, 8, 64) 256 conv2d_176[0][0] __________________________________________________________________________________________________ re_lu_160 (ReLU) (None, 8, 8, 64) 0 batch_normalization_175[0][0] __________________________________________________________________________________________________ conv2d_177 (Conv2D) (None, 8, 8, 256) 16640 re_lu_160[0][0] __________________________________________________________________________________________________ batch_normalization_176 (BatchN (None, 8, 8, 256) 1024 conv2d_177[0][0] __________________________________________________________________________________________________ add_52 (Add) (None, 8, 8, 256) 0 batch_normalization_176[0][0] re_lu_158[0][0] __________________________________________________________________________________________________ re_lu_161 (ReLU) (None, 8, 8, 256) 0 add_52[0][0] __________________________________________________________________________________________________ conv2d_178 (Conv2D) (None, 4, 4, 128) 32768 re_lu_161[0][0] __________________________________________________________________________________________________ batch_normalization_177 (BatchN (None, 4, 4, 128) 512 conv2d_178[0][0] __________________________________________________________________________________________________ re_lu_162 (ReLU) (None, 4, 4, 128) 0 batch_normalization_177[0][0] __________________________________________________________________________________________________ conv2d_179 (Conv2D) (None, 4, 4, 128) 147456 re_lu_162[0][0] __________________________________________________________________________________________________ batch_normalization_178 (BatchN (None, 4, 4, 128) 512 conv2d_179[0][0] __________________________________________________________________________________________________ re_lu_163 (ReLU) (None, 4, 4, 128) 0 batch_normalization_178[0][0] __________________________________________________________________________________________________ conv2d_180 (Conv2D) (None, 4, 4, 512) 66048 re_lu_163[0][0] __________________________________________________________________________________________________ conv2d_181 (Conv2D) (None, 4, 4, 512) 131584 re_lu_161[0][0] __________________________________________________________________________________________________ batch_normalization_179 (BatchN (None, 4, 4, 512) 2048 conv2d_180[0][0] __________________________________________________________________________________________________ batch_normalization_180 (BatchN (None, 4, 4, 512) 2048 conv2d_181[0][0] __________________________________________________________________________________________________ add_53 (Add) (None, 4, 4, 512) 0 batch_normalization_179[0][0] batch_normalization_180[0][0] __________________________________________________________________________________________________ re_lu_164 (ReLU) (None, 4, 4, 512) 0 add_53[0][0] __________________________________________________________________________________________________ conv2d_182 (Conv2D) (None, 4, 4, 128) 65536 re_lu_164[0][0] __________________________________________________________________________________________________ batch_normalization_181 (BatchN (None, 4, 4, 128) 512 conv2d_182[0][0] __________________________________________________________________________________________________ re_lu_165 (ReLU) (None, 4, 4, 128) 0 batch_normalization_181[0][0] __________________________________________________________________________________________________ conv2d_183 (Conv2D) (None, 4, 4, 128) 147456 re_lu_165[0][0] __________________________________________________________________________________________________ batch_normalization_182 (BatchN (None, 4, 4, 128) 512 conv2d_183[0][0] __________________________________________________________________________________________________ re_lu_166 (ReLU) (None, 4, 4, 128) 0 batch_normalization_182[0][0] __________________________________________________________________________________________________ conv2d_184 (Conv2D) (None, 4, 4, 512) 66048 re_lu_166[0][0] __________________________________________________________________________________________________ batch_normalization_183 (BatchN (None, 4, 4, 512) 2048 conv2d_184[0][0] __________________________________________________________________________________________________ add_54 (Add) (None, 4, 4, 512) 0 batch_normalization_183[0][0] re_lu_164[0][0] __________________________________________________________________________________________________ re_lu_167 (ReLU) (None, 4, 4, 512) 0 add_54[0][0] __________________________________________________________________________________________________ conv2d_185 (Conv2D) (None, 4, 4, 128) 65536 re_lu_167[0][0] __________________________________________________________________________________________________ batch_normalization_184 (BatchN (None, 4, 4, 128) 512 conv2d_185[0][0] __________________________________________________________________________________________________ re_lu_168 (ReLU) (None, 4, 4, 128) 0 batch_normalization_184[0][0] __________________________________________________________________________________________________ conv2d_186 (Conv2D) (None, 4, 4, 128) 147456 re_lu_168[0][0] __________________________________________________________________________________________________ batch_normalization_185 (BatchN (None, 4, 4, 128) 512 conv2d_186[0][0] __________________________________________________________________________________________________ re_lu_169 (ReLU) (None, 4, 4, 128) 0 batch_normalization_185[0][0] __________________________________________________________________________________________________ conv2d_187 (Conv2D) (None, 4, 4, 512) 66048 re_lu_169[0][0] __________________________________________________________________________________________________ batch_normalization_186 (BatchN (None, 4, 4, 512) 2048 conv2d_187[0][0] __________________________________________________________________________________________________ add_55 (Add) (None, 4, 4, 512) 0 batch_normalization_186[0][0] re_lu_167[0][0] __________________________________________________________________________________________________ re_lu_170 (ReLU) (None, 4, 4, 512) 0 add_55[0][0] __________________________________________________________________________________________________ conv2d_188 (Conv2D) (None, 4, 4, 128) 65536 re_lu_170[0][0] __________________________________________________________________________________________________ batch_normalization_187 (BatchN (None, 4, 4, 128) 512 conv2d_188[0][0] __________________________________________________________________________________________________ re_lu_171 (ReLU) (None, 4, 4, 128) 0 batch_normalization_187[0][0] __________________________________________________________________________________________________ conv2d_189 (Conv2D) (None, 4, 4, 128) 147456 re_lu_171[0][0] __________________________________________________________________________________________________ batch_normalization_188 (BatchN (None, 4, 4, 128) 512 conv2d_189[0][0] __________________________________________________________________________________________________ re_lu_172 (ReLU) (None, 4, 4, 128) 0 batch_normalization_188[0][0] __________________________________________________________________________________________________ conv2d_190 (Conv2D) (None, 4, 4, 512) 66048 re_lu_172[0][0] __________________________________________________________________________________________________ batch_normalization_189 (BatchN (None, 4, 4, 512) 2048 conv2d_190[0][0] __________________________________________________________________________________________________ add_56 (Add) (None, 4, 4, 512) 0 batch_normalization_189[0][0] re_lu_170[0][0] __________________________________________________________________________________________________ re_lu_173 (ReLU) (None, 4, 4, 512) 0 add_56[0][0] __________________________________________________________________________________________________ conv2d_191 (Conv2D) (None, 2, 2, 256) 131072 re_lu_173[0][0] __________________________________________________________________________________________________ batch_normalization_190 (BatchN (None, 2, 2, 256) 1024 conv2d_191[0][0] __________________________________________________________________________________________________ re_lu_174 (ReLU) (None, 2, 2, 256) 0 batch_normalization_190[0][0] __________________________________________________________________________________________________ conv2d_192 (Conv2D) (None, 2, 2, 256) 589824 re_lu_174[0][0] __________________________________________________________________________________________________ batch_normalization_191 (BatchN (None, 2, 2, 256) 1024 conv2d_192[0][0] __________________________________________________________________________________________________ re_lu_175 (ReLU) (None, 2, 2, 256) 0 batch_normalization_191[0][0] __________________________________________________________________________________________________ conv2d_193 (Conv2D) (None, 2, 2, 1024) 263168 re_lu_175[0][0] __________________________________________________________________________________________________ conv2d_194 (Conv2D) (None, 2, 2, 1024) 525312 re_lu_173[0][0] __________________________________________________________________________________________________ batch_normalization_192 (BatchN (None, 2, 2, 1024) 4096 conv2d_193[0][0] __________________________________________________________________________________________________ batch_normalization_193 (BatchN (None, 2, 2, 1024) 4096 conv2d_194[0][0] __________________________________________________________________________________________________ add_57 (Add) (None, 2, 2, 1024) 0 batch_normalization_192[0][0] batch_normalization_193[0][0] __________________________________________________________________________________________________ re_lu_176 (ReLU) (None, 2, 2, 1024) 0 add_57[0][0] __________________________________________________________________________________________________ conv2d_195 (Conv2D) (None, 2, 2, 256) 262144 re_lu_176[0][0] __________________________________________________________________________________________________ batch_normalization_194 (BatchN (None, 2, 2, 256) 1024 conv2d_195[0][0] __________________________________________________________________________________________________ re_lu_177 (ReLU) (None, 2, 2, 256) 0 batch_normalization_194[0][0] __________________________________________________________________________________________________ conv2d_196 (Conv2D) (None, 2, 2, 256) 589824 re_lu_177[0][0] __________________________________________________________________________________________________ batch_normalization_195 (BatchN (None, 2, 2, 256) 1024 conv2d_196[0][0] __________________________________________________________________________________________________ re_lu_178 (ReLU) (None, 2, 2, 256) 0 batch_normalization_195[0][0] __________________________________________________________________________________________________ conv2d_197 (Conv2D) (None, 2, 2, 1024) 263168 re_lu_178[0][0] __________________________________________________________________________________________________ batch_normalization_196 (BatchN (None, 2, 2, 1024) 4096 conv2d_197[0][0] __________________________________________________________________________________________________ add_58 (Add) (None, 2, 2, 1024) 0 batch_normalization_196[0][0] re_lu_176[0][0] __________________________________________________________________________________________________ re_lu_179 (ReLU) (None, 2, 2, 1024) 0 add_58[0][0] __________________________________________________________________________________________________ conv2d_198 (Conv2D) (None, 2, 2, 256) 262144 re_lu_179[0][0] __________________________________________________________________________________________________ batch_normalization_197 (BatchN (None, 2, 2, 256) 1024 conv2d_198[0][0] __________________________________________________________________________________________________ re_lu_180 (ReLU) (None, 2, 2, 256) 0 batch_normalization_197[0][0] __________________________________________________________________________________________________ conv2d_199 (Conv2D) (None, 2, 2, 256) 589824 re_lu_180[0][0] __________________________________________________________________________________________________ batch_normalization_198 (BatchN (None, 2, 2, 256) 1024 conv2d_199[0][0] __________________________________________________________________________________________________ re_lu_181 (ReLU) (None, 2, 2, 256) 0 batch_normalization_198[0][0] __________________________________________________________________________________________________ conv2d_200 (Conv2D) (None, 2, 2, 1024) 263168 re_lu_181[0][0] __________________________________________________________________________________________________ batch_normalization_199 (BatchN (None, 2, 2, 1024) 4096 conv2d_200[0][0] __________________________________________________________________________________________________ add_59 (Add) (None, 2, 2, 1024) 0 batch_normalization_199[0][0] re_lu_179[0][0] __________________________________________________________________________________________________ re_lu_182 (ReLU) (None, 2, 2, 1024) 0 add_59[0][0] __________________________________________________________________________________________________ conv2d_201 (Conv2D) (None, 2, 2, 256) 262144 re_lu_182[0][0] __________________________________________________________________________________________________ batch_normalization_200 (BatchN (None, 2, 2, 256) 1024 conv2d_201[0][0] __________________________________________________________________________________________________ re_lu_183 (ReLU) (None, 2, 2, 256) 0 batch_normalization_200[0][0] __________________________________________________________________________________________________ conv2d_202 (Conv2D) (None, 2, 2, 256) 589824 re_lu_183[0][0] __________________________________________________________________________________________________ batch_normalization_201 (BatchN (None, 2, 2, 256) 1024 conv2d_202[0][0] __________________________________________________________________________________________________ re_lu_184 (ReLU) (None, 2, 2, 256) 0 batch_normalization_201[0][0] __________________________________________________________________________________________________ conv2d_203 (Conv2D) (None, 2, 2, 1024) 263168 re_lu_184[0][0] __________________________________________________________________________________________________ batch_normalization_202 (BatchN (None, 2, 2, 1024) 4096 conv2d_203[0][0] __________________________________________________________________________________________________ add_60 (Add) (None, 2, 2, 1024) 0 batch_normalization_202[0][0] re_lu_182[0][0] __________________________________________________________________________________________________ re_lu_185 (ReLU) (None, 2, 2, 1024) 0 add_60[0][0] __________________________________________________________________________________________________ conv2d_204 (Conv2D) (None, 2, 2, 256) 262144 re_lu_185[0][0] __________________________________________________________________________________________________ batch_normalization_203 (BatchN (None, 2, 2, 256) 1024 conv2d_204[0][0] __________________________________________________________________________________________________ re_lu_186 (ReLU) (None, 2, 2, 256) 0 batch_normalization_203[0][0] __________________________________________________________________________________________________ conv2d_205 (Conv2D) (None, 2, 2, 256) 589824 re_lu_186[0][0] __________________________________________________________________________________________________ batch_normalization_204 (BatchN (None, 2, 2, 256) 1024 conv2d_205[0][0] __________________________________________________________________________________________________ re_lu_187 (ReLU) (None, 2, 2, 256) 0 batch_normalization_204[0][0] __________________________________________________________________________________________________ conv2d_206 (Conv2D) (None, 2, 2, 1024) 263168 re_lu_187[0][0] __________________________________________________________________________________________________ batch_normalization_205 (BatchN (None, 2, 2, 1024) 4096 conv2d_206[0][0] __________________________________________________________________________________________________ add_61 (Add) (None, 2, 2, 1024) 0 batch_normalization_205[0][0] re_lu_185[0][0] __________________________________________________________________________________________________ re_lu_188 (ReLU) (None, 2, 2, 1024) 0 add_61[0][0] __________________________________________________________________________________________________ conv2d_207 (Conv2D) (None, 2, 2, 256) 262144 re_lu_188[0][0] __________________________________________________________________________________________________ batch_normalization_206 (BatchN (None, 2, 2, 256) 1024 conv2d_207[0][0] __________________________________________________________________________________________________ re_lu_189 (ReLU) (None, 2, 2, 256) 0 batch_normalization_206[0][0] __________________________________________________________________________________________________ conv2d_208 (Conv2D) (None, 2, 2, 256) 589824 re_lu_189[0][0] __________________________________________________________________________________________________ batch_normalization_207 (BatchN (None, 2, 2, 256) 1024 conv2d_208[0][0] __________________________________________________________________________________________________ re_lu_190 (ReLU) (None, 2, 2, 256) 0 batch_normalization_207[0][0] __________________________________________________________________________________________________ conv2d_209 (Conv2D) (None, 2, 2, 1024) 263168 re_lu_190[0][0] __________________________________________________________________________________________________ batch_normalization_208 (BatchN (None, 2, 2, 1024) 4096 conv2d_209[0][0] __________________________________________________________________________________________________ add_62 (Add) (None, 2, 2, 1024) 0 batch_normalization_208[0][0] re_lu_188[0][0] __________________________________________________________________________________________________ re_lu_191 (ReLU) (None, 2, 2, 1024) 0 add_62[0][0] __________________________________________________________________________________________________ conv2d_210 (Conv2D) (None, 1, 1, 512) 524288 re_lu_191[0][0] __________________________________________________________________________________________________ batch_normalization_209 (BatchN (None, 1, 1, 512) 2048 conv2d_210[0][0] __________________________________________________________________________________________________ re_lu_192 (ReLU) (None, 1, 1, 512) 0 batch_normalization_209[0][0] __________________________________________________________________________________________________ conv2d_211 (Conv2D) (None, 1, 1, 512) 2359296 re_lu_192[0][0] __________________________________________________________________________________________________ batch_normalization_210 (BatchN (None, 1, 1, 512) 2048 conv2d_211[0][0] __________________________________________________________________________________________________ re_lu_193 (ReLU) (None, 1, 1, 512) 0 batch_normalization_210[0][0] __________________________________________________________________________________________________ conv2d_212 (Conv2D) (None, 1, 1, 2048) 1050624 re_lu_193[0][0] __________________________________________________________________________________________________ conv2d_213 (Conv2D) (None, 1, 1, 2048) 2099200 re_lu_191[0][0] __________________________________________________________________________________________________ batch_normalization_211 (BatchN (None, 1, 1, 2048) 8192 conv2d_212[0][0] __________________________________________________________________________________________________ batch_normalization_212 (BatchN (None, 1, 1, 2048) 8192 conv2d_213[0][0] __________________________________________________________________________________________________ add_63 (Add) (None, 1, 1, 2048) 0 batch_normalization_211[0][0] batch_normalization_212[0][0] __________________________________________________________________________________________________ re_lu_194 (ReLU) (None, 1, 1, 2048) 0 add_63[0][0] __________________________________________________________________________________________________ conv2d_214 (Conv2D) (None, 1, 1, 512) 1048576 re_lu_194[0][0] __________________________________________________________________________________________________ batch_normalization_213 (BatchN (None, 1, 1, 512) 2048 conv2d_214[0][0] __________________________________________________________________________________________________ re_lu_195 (ReLU) (None, 1, 1, 512) 0 batch_normalization_213[0][0] __________________________________________________________________________________________________ conv2d_215 (Conv2D) (None, 1, 1, 512) 2359296 re_lu_195[0][0] __________________________________________________________________________________________________ batch_normalization_214 (BatchN (None, 1, 1, 512) 2048 conv2d_215[0][0] __________________________________________________________________________________________________ re_lu_196 (ReLU) (None, 1, 1, 512) 0 batch_normalization_214[0][0] __________________________________________________________________________________________________ conv2d_216 (Conv2D) (None, 1, 1, 2048) 1050624 re_lu_196[0][0] __________________________________________________________________________________________________ batch_normalization_215 (BatchN (None, 1, 1, 2048) 8192 conv2d_216[0][0] __________________________________________________________________________________________________ add_64 (Add) (None, 1, 1, 2048) 0 batch_normalization_215[0][0] re_lu_194[0][0] __________________________________________________________________________________________________ re_lu_197 (ReLU) (None, 1, 1, 2048) 0 add_64[0][0] __________________________________________________________________________________________________ conv2d_217 (Conv2D) (None, 1, 1, 512) 1048576 re_lu_197[0][0] __________________________________________________________________________________________________ batch_normalization_216 (BatchN (None, 1, 1, 512) 2048 conv2d_217[0][0] __________________________________________________________________________________________________ re_lu_198 (ReLU) (None, 1, 1, 512) 0 batch_normalization_216[0][0] __________________________________________________________________________________________________ conv2d_218 (Conv2D) (None, 1, 1, 512) 2359296 re_lu_198[0][0] __________________________________________________________________________________________________ batch_normalization_217 (BatchN (None, 1, 1, 512) 2048 conv2d_218[0][0] __________________________________________________________________________________________________ re_lu_199 (ReLU) (None, 1, 1, 512) 0 batch_normalization_217[0][0] __________________________________________________________________________________________________ conv2d_219 (Conv2D) (None, 1, 1, 2048) 1050624 re_lu_199[0][0] __________________________________________________________________________________________________ batch_normalization_218 (BatchN (None, 1, 1, 2048) 8192 conv2d_219[0][0] __________________________________________________________________________________________________ add_65 (Add) (None, 1, 1, 2048) 0 batch_normalization_218[0][0] re_lu_197[0][0] __________________________________________________________________________________________________ re_lu_200 (ReLU) (None, 1, 1, 2048) 0 add_65[0][0] __________________________________________________________________________________________________ global_average_pooling2d_3 (Glo (None, 2048) 0 re_lu_200[0][0] __________________________________________________________________________________________________ dense (Dense) (None, 10) 20490 global_average_pooling2d_3[0][0] __________________________________________________________________________________________________ activation_2 (Activation) (None, 10) 0 dense[0][0] ================================================================================================== Total params: 23,600,586 Trainable params: 23,547,466 Non-trainable params: 53,120 __________________________________________________________________________________________________ 1 2 3 model.compile(loss = 'categorical_crossentropy', optimizer=tf.keras.optimizers.Adam(lr=0.001), metri
…
pe = 32, 32, 3 k = 32 theta = 0.5 repetitions = 6, 12, 24, 16 num_classes = 100 model = DenseNet(img_shape, k, theta, repetitions, num_classes=num_classes) 1 model.summary() Model: \"model_1\" __________________________________________________________________________________________________ Layer (type) Output Shape Param # Connected to ================================================================================================== input_4 (InputLayer) [(None, 32, 32, 3)] 0 __________________________________________________________________________________________________ conv2d_123 (Conv2D) (None, 16, 16, 16) 2368 input_4[0][0] __________________________________________________________________________________________________ batch_normalization_120 (BatchN (None, 16, 16, 16) 64 conv2d_123[0][0] __________________________________________________________________________________________________ re_lu_120 (ReLU) (None, 16, 16, 16) 0 batch_normalization_120[0][0] __________________________________________________________________________________________________ conv2d_124 (Conv2D) (None, 16, 16, 128) 2048 re_lu_120[0][0] __________________________________________________________________________________________________ batch_normalization_121 (BatchN (None, 16, 16, 128) 512 conv2d_124[0][0] __________________________________________________________________________________________________ re_lu_121 (ReLU) (None, 16, 16, 128) 0 batch_normalization_121[0][0] __________________________________________________________________________________________________ conv2d_125 (Conv2D) (None, 16, 16, 32) 36864 re_lu_121[0][0] __________________________________________________________________________________________________ concatenate_58 (Concatenate) (None, 16, 16, 48) 0 conv2d_123[0][0] conv2d_125[0][0] __________________________________________________________________________________________________ batch_normalization_122 (BatchN (None, 16, 16, 48) 192 concatenate_58[0][0] __________________________________________________________________________________________________ re_lu_122 (ReLU) (None, 16, 16, 48) 0 batch_normalization_122[0][0] __________________________________________________________________________________________________ conv2d_126 (Conv2D) (None, 16, 16, 128) 6144 re_lu_122[0][0] __________________________________________________________________________________________________ batch_normalization_123 (BatchN (None, 16, 16, 128) 512 conv2d_126[0][0] __________________________________________________________________________________________________ re_lu_123 (ReLU) (None, 16, 16, 128) 0 batch_normalization_123[0][0] __________________________________________________________________________________________________ conv2d_127 (Conv2D) (None, 16, 16, 32) 36864 re_lu_123[0][0] __________________________________________________________________________________________________ concatenate_59 (Concatenate) (None, 16, 16, 80) 0 concatenate_58[0][0] conv2d_127[0][0] __________________________________________________________________________________________________ batch_normalization_124 (BatchN (None, 16, 16, 80) 320 concatenate_59[0][0] __________________________________________________________________________________________________ re_lu_124 (ReLU) (None, 16, 16, 80) 0 batch_normalization_124[0][0] __________________________________________________________________________________________________ conv2d_128 (Conv2D) (None, 16, 16, 128) 10240 re_lu_124[0][0] __________________________________________________________________________________________________ batch_normalization_125 (BatchN (None, 16, 16, 128) 512 conv2d_128[0][0] __________________________________________________________________________________________________ re_lu_125 (ReLU) (None, 16, 16, 128) 0 batch_normalization_125[0][0] __________________________________________________________________________________________________ conv2d_129 (Conv2D) (None, 16, 16, 32) 36864 re_lu_125[0][0] __________________________________________________________________________________________________ concatenate_60 (Concatenate) (None, 16, 16, 112) 0 concatenate_59[0][0] conv2d_129[0][0] __________________________________________________________________________________________________ batch_normalization_126 (BatchN (None, 16, 16, 112) 448 concatenate_60[0][0] __________________________________________________________________________________________________ re_lu_126 (ReLU) (None, 16, 16, 112) 0 batch_normalization_126[0][0] __________________________________________________________________________________________________ conv2d_130 (Conv2D) (None, 16, 16, 128) 14336 re_lu_126[0][0] __________________________________________________________________________________________________ batch_normalization_127 (BatchN (None, 16, 16, 128) 512 conv2d_130[0][0] __________________________________________________________________________________________________ re_lu_127 (ReLU) (None, 16, 16, 128) 0 batch_normalization_127[0][0] __________________________________________________________________________________________________ conv2d_131 (Conv2D) (None, 16, 16, 32) 36864 re_lu_127[0][0] __________________________________________________________________________________________________ concatenate_61 (Concatenate) (None, 16, 16, 144) 0 concatenate_60[0][0] conv2d_131[0][0] __________________________________________________________________________________________________ batch_normalization_128 (BatchN (None, 16, 16, 144) 576 concatenate_61[0][0] __________________________________________________________________________________________________ re_lu_128 (ReLU) (None, 16, 16, 144) 0 batch_normalization_128[0][0] __________________________________________________________________________________________________ conv2d_132 (Conv2D) (None, 16, 16, 128) 18432 re_lu_128[0][0] __________________________________________________________________________________________________ batch_normalization_129 (BatchN (None, 16, 16, 128) 512 conv2d_132[0][0] __________________________________________________________________________________________________ re_lu_129 (ReLU) (None, 16, 16, 128) 0 batch_normalization_129[0][0] __________________________________________________________________________________________________ conv2d_133 (Conv2D) (None, 16, 16, 32) 36864 re_lu_129[0][0] __________________________________________________________________________________________________ concatenate_62 (Concatenate) (None, 16, 16, 176) 0 concatenate_61[0][0] conv2d_133[0][0] __________________________________________________________________________________________________ batch_normalization_130 (BatchN (None, 16, 16, 176) 704 concatenate_62[0][0] __________________________________________________________________________________________________ re_lu_130 (ReLU) (None, 16, 16, 176) 0 batch_normalization_130[0][0] __________________________________________________________________________________________________ conv2d_134 (Conv2D) (None, 16, 16, 128) 22528 re_lu_130[0][0] __________________________________________________________________________________________________ batch_normalization_131 (BatchN (None, 16, 16, 128) 512 conv2d_134[0][0] __________________________________________________________________________________________________ re_lu_131 (ReLU) (None, 16, 16, 128) 0 batch_normalization_131[0][0] __________________________________________________________________________________________________ conv2d_135 (Conv2D) (None, 16, 16, 32) 36864 re_lu_131[0][0] __________________________________________________________________________________________________ concatenate_63 (Concatenate) (None, 16, 16, 208) 0 concatenate_62[0][0] conv2d_135[0][0] __________________________________________________________________________________________________ batch_normalization_132 (BatchN (None, 16, 16, 208) 832 concatenate_63[0][0] __________________________________________________________________________________________________ re_lu_132 (ReLU) (None, 16, 16, 208) 0 batch_normalization_132[0][0] __________________________________________________________________________________________________ conv2d_136 (Conv2D) (None, 16, 16, 104) 21632 re_lu_132[0][0] __________________________________________________________________________________________________ average_pooling2d_4 (AveragePoo (None, 8, 8, 104) 0 conv2d_136[0][0] __________________________________________________________________________________________________ batch_normalization_133 (BatchN (None, 8, 8, 104) 416 average_pooling2d_4[0][0] __________________________________________________________________________________________________ re_lu_133 (ReLU) (None, 8, 8, 104) 0 batch_normalization_133[0][0] __________________________________________________________________________________________________ conv2d_137 (Conv2D) (None, 8, 8, 128) 13312 re_lu_133[0][0] __________________________________________________________________________________________________ batch_normalization_134 (BatchN (None, 8, 8, 128) 512 conv2d_137[0][0] __________________________________________________________________________________________________ re_lu_134 (ReLU) (None, 8, 8, 128) 0 batch_normalization_134[0][0] __________________________________________________________________________________________________ conv2d_138 (Conv2D) (None, 8, 8, 32) 36864 re_lu_134[0][0] __________________________________________________________________________________________________ concatenate_64 (Concatenate) (None, 8, 8, 136) 0 average_pooling2d_4[0][0] conv2d_138[0][0] __________________________________________________________________________________________________ batch_normalization_135 (BatchN (None, 8, 8, 136) 544 concatenate_64[0][0] __________________________________________________________________________________________________ re_lu_135 (ReLU) (None, 8, 8, 136) 0 batch_normalization_135[0][0] __________________________________________________________________________________________________ conv2d_139 (Conv2D) (None, 8, 8, 128) 17408 re_lu_135[0][0] __________________________________________________________________________________________________ batch_normalization_136 (BatchN (None, 8, 8, 128) 512 conv2d_139[0][0] __________________________________________________________________________________________________ re_lu_136 (ReLU) (None, 8, 8, 128) 0 batch_normalization_136[0][0] __________________________________________________________________________________________________ conv2d_140 (Conv2D) (None, 8, 8, 32) 36864 re_lu_136[0][0] __________________________________________________________________________________________________ concatenate_65 (Concatenate) (None, 8, 8, 168) 0 concatenate_64[0][0] conv2d_140[0][0] __________________________________________________________________________________________________ batch_normalization_137 (BatchN (None, 8, 8, 168) 672 concatenate_65[0][0] __________________________________________________________________________________________________ re_lu_137 (ReLU) (None, 8, 8, 168) 0 batch_normalization_137[0][0] __________________________________________________________________________________________________ conv2d_141 (Conv2D) (None, 8, 8, 128) 21504 re_lu_137[0][0] __________________________________________________________________________________________________ batch_normalization_138 (BatchN (None, 8, 8, 128) 512 conv2d_141[0][0] __________________________________________________________________________________________________ re_lu_138 (ReLU) (None, 8, 8, 128) 0 batch_normalization_138[0][0] __________________________________________________________________________________________________ conv2d_142 (Conv2D) (None, 8, 8, 32) 36864 re_lu_138[0][0] __________________________________________________________________________________________________ concatenate_66 (Concatenate) (None, 8, 8, 200) 0 concatenate_65[0][0] conv2d_142[0][0] __________________________________________________________________________________________________ batch_normalization_139 (BatchN (None, 8, 8, 200) 800 concatenate_66[0][0] __________________________________________________________________________________________________ re_lu_139 (ReLU) (None, 8, 8, 200) 0 batch_normalization_139[0][0] __________________________________________________________________________________________________ conv2d_143 (Conv2D) (None, 8, 8, 128) 25600 re_lu_139[0][0] __________________________________________________________________________________________________ batch_normalization_140 (BatchN (None, 8, 8, 128) 512 conv2d_143[0][0] __________________________________________________________________________________________________ re_lu_140 (ReLU) (None, 8, 8, 128) 0 batch_normalization_140[0][0] __________________________________________________________________________________________________ conv2d_144 (Conv2D) (None, 8, 8, 32) 36864 re_lu_140[0][0] __________________________________________________________________________________________________ concatenate_67 (Concatenate) (None, 8, 8, 232) 0 concatenate_66[0][0] conv2d_144[0][0] __________________________________________________________________________________________________ batch_normalization_141 (BatchN (None, 8, 8, 232) 928 concatenate_67[0][0] __________________________________________________________________________________________________ re_lu_141 (ReLU) (None, 8, 8, 232) 0 batch_normalization_141[0][0] __________________________________________________________________________________________________ conv2d_145 (Conv2D) (None, 8, 8, 128) 29696 re_lu_141[0][0] __________________________________________________________________________________________________ batch_normalization_142 (BatchN (None, 8, 8, 128) 512 conv2d_145[0][0] __________________________________________________________________________________________________ re_lu_142 (ReLU) (None, 8, 8, 128) 0 batch_normalization_142[0][0] __________________________________________________________________________________________________ conv2d_146 (Conv2D) (None, 8, 8, 32) 36864 re_lu_142[0][0] __________________________________________________________________________________________________ concatenate_68 (Concatenate) (None, 8, 8, 264) 0 concatenate_67[0][0] conv2d_146[0][0] __________________________________________________________________________________________________ batch_normalization_143 (BatchN (None, 8, 8, 264) 1056 concatenate_68[0][0] __________________________________________________________________________________________________ re_lu_143 (ReLU) (None, 8, 8, 264) 0 batch_normalization_143[0][0] __________________________________________________________________________________________________ conv2d_147 (Conv2D) (None, 8, 8, 128) 33792 re_lu_143[0][0] __________________________________________________________________________________________________ batch_normalization_144 (BatchN (None, 8, 8, 128) 512 conv2d_147[0][0] __________________________________________________________________________________________________ re_lu_144 (ReLU) (None, 8, 8, 128) 0 batch_normalization_144[0][0] __________________________________________________________________________________________________ conv2d_148 (Conv2D) (None, 8, 8, 32) 36864 re_lu_144[0][0] __________________________________________________________________________________________________ concatenate_69 (Concatenate) (None, 8, 8, 296) 0 concatenate_68[0][0] conv2d_148[0][0] __________________________________________________________________________________________________ batch_normalization_145 (BatchN (None, 8, 8, 296) 1184 concatenate_69[0][0] __________________________________________________________________________________________________ re_lu_145 (ReLU) (None, 8, 8, 296) 0 batch_normalization_145[0][0] __________________________________________________________________________________________________ conv2d_149 (Conv2D) (None, 8, 8, 128) 37888 re_lu_145[0][0] __________________________________________________________________________________________________ batch_normalization_146 (BatchN (None, 8, 8, 128) 512 conv2d_149[0][0] __________________________________________________________________________________________________ re_lu_146 (ReLU) (None, 8, 8, 128) 0 batch_normalization_146[0][0] __________________________________________________________________________________________________ conv2d_150 (Conv2D) (None, 8, 8, 32) 36864 re_lu_146[0][0] __________________________________________________________________________________________________ concatenate_70 (Concatenate) (None, 8, 8, 328) 0 concatenate_69[0][0] conv2d_150[0][0] __________________________________________________________________________________________________ batch_normalization_147 (BatchN (None, 8, 8, 328) 1312 concatenate_70[0][0] __________________________________________________________________________________________________ re_lu_147 (ReLU) (None, 8, 8, 328) 0 batch_normalization_147[0][0] __________________________________________________________________________________________________ conv2d_151 (Conv2D) (None, 8, 8, 128) 41984 re_lu_147[0][0] __________________________________________________________________________________________________ batch_normalization_148 (BatchN (None, 8, 8, 128) 512 conv2d_151[0][0] __________________________________________________________________________________________________ re_lu_148 (ReLU) (None, 8, 8, 128) 0 batch_normalization_148[0][0] __________________________________________________________________________________________________ conv2d_152 (Conv2D) (None, 8, 8, 32) 36864 re_lu_148[0][0] __________________________________________________________________________________________________ concatenate_71 (Concatenate) (None, 8, 8, 360) 0 concatenate_70[0][0] conv2d_152[0][0] __________________________________________________________________________________________________ batch_normalization_149 (BatchN (None, 8, 8, 360) 1440 concatenate_71[0][0] __________________________________________________________________________________________________ re_lu_149 (ReLU) (None, 8, 8, 360) 0 batch_normalization_149[0][0] __________________________________________________________________________________________________ conv2d_153 (Conv2D) (None, 8, 8, 128) 46080 re_lu_149[0][0] __________________________________________________________________________________________________ batch_normalization_150 (BatchN (None, 8, 8, 128) 512 conv2d_153[0][0] __________________________________________________________________________________________________ re_lu_150 (ReLU) (None, 8, 8, 128) 0 batch_normalization_150[0][0] __________________________________________________________________________________________________ conv2d_154 (Conv2D) (None, 8, 8, 32) 36864 re_lu_150[0][0] __________________________________________________________________________________________________ concatenate_72 (Concatenate) (None, 8, 8, 392) 0 concatenate_71[0][0] conv2d_154[0][0] __________________________________________________________________________________________________ batch_normalization_151 (BatchN (None, 8, 8, 392) 1568 concatenate_72[0][0] __________________________________________________________________________________________________ re_lu_151 (ReLU) (None, 8, 8, 392) 0 batch_normalization_151[0][0] __________________________________________________________________________________________________ conv2d_155 (Conv2D) (None, 8, 8, 128) 50176 re_lu_151[0][0] __________________________________________________________________________________________________ batch_normalization_152 (BatchN (None, 8, 8, 128) 512 conv2d_155[0][0] __________________________________________________________________________________________________ re_lu_152 (ReLU) (None, 8, 8, 128) 0 batch_normalization_152[0][0] __________________________________________________________________________________________________ conv2d_156 (Conv2D) (None, 8, 8, 32) 36864 re_lu_152[0][0] __________________________________________________________________________________________________ concatenate_73 (Concatenate) (None, 8, 8, 424) 0 concatenate_72[0][0] conv2d_156[0][0] __________________________________________________________________________________________________ batch_normalization_153 (BatchN (None, 8, 8, 424) 1696 concatenate_73[0][0] __________________________________________________________________________________________________ re_lu_153 (ReLU) (None, 8, 8, 424) 0 batch_normalization_153[0][0] __________________________________________________________________________________________________ conv2d_157 (Conv2D) (None, 8, 8, 128) 54272 re_lu_153[0][0] __________________________________________________________________________________________________ batch_normalization_154 (BatchN (None, 8, 8, 128) 512 conv2d_157[0][0] __________________________________________________________________________________________________ re_lu_154 (ReLU) (None, 8, 8, 128) 0 batch_normalization_154[0][0] __________________________________________________________________________________________________ conv2d_158 (Conv2D) (None, 8, 8, 32) 36864 re_lu_154[0][0] __________________________________________________________________________________________________ concatenate_74 (Concatenate) (None, 8, 8, 456) 0 concatenate_73[0][0] conv2d_158[0][0] __________________________________________________________________________________________________ batch_normalization_155 (BatchN (None, 8, 8, 456) 1824 concatenate_74[0][0] __________________________________________________________________________________________________ re_lu_155 (ReLU) (None, 8, 8, 456) 0 batch_normalization_155[0][0] __________________________________________________________________________________________________ conv2d_159 (Conv2D) (None, 8, 8, 128) 58368 re_lu_155[0][0] __________________________________________________________________________________________________ batch_normalization_156 (BatchN (None, 8, 8, 128) 512 conv2d_159[0][0] __________________________________________________________________________________________________ re_lu_156 (ReLU) (None, 8, 8, 128) 0 batch_normalization_156[0][0] __________________________________________________________________________________________________ conv2d_160 (Conv2D) (None, 8, 8, 32) 36864 re_lu_156[0][0] __________________________________________________________________________________________________ concatenate_75 (Concatenate) (None, 8, 8, 488) 0 concatenate_74[0][0] conv2d_160[0][0] __________________________________________________________________________________________________ batch_normalization_157 (BatchN (None, 8, 8, 488) 1952 concatenate_75[0][0] __________________________________________________________________________________________________ re_lu_157 (ReLU) (None, 8, 8, 488) 0 batch_normalization_157[0][0] __________________________________________________________________________________________________ conv2d_161 (Conv2D) (None, 8, 8, 244) 119072 re_lu_157[0][0] __________________________________________________________________________________________________ average_pooling2d_5 (AveragePoo (None, 4, 4, 244) 0 conv2d_161[0][0] __________________________________________________________________________________________________ batch_normalization_158 (BatchN (None, 4, 4, 244) 976 average_pooling2d_5[0][0] __________________________________________________________________________________________________ re_lu_158 (ReLU) (None, 4, 4, 244) 0 batch_normalization_158[0][0] __________________________________________________________________________________________________ conv2d_162 (Conv2D) (None, 4, 4, 128) 31232 re_lu_158[0][0] __________________________________________________________________________________________________ batch_normalization_159 (BatchN (None, 4, 4, 128) 512 conv2d_162[0][0] __________________________________________________________________________________________________ re_lu_159 (ReLU) (None, 4, 4, 128) 0 batch_normalization_159[0][0] __________________________________________________________________________________________________ conv2d_163 (Conv2D) (None, 4, 4, 32) 36864 re_lu_159[0][0] __________________________________________________________________________________________________ concatenate_76 (Concatenate) (None, 4, 4, 276) 0 average_pooling2d_5[0][0] conv2d_163[0][0] __________________________________________________________________________________________________ batch_normalization_160 (BatchN (None, 4, 4, 276) 1104 concatenate_76[0][0] __________________________________________________________________________________________________ re_lu_160 (ReLU) (None, 4, 4, 276) 0 batch_normalization_160[0][0] __________________________________________________________________________________________________ conv2d_164 (Conv2D) (None, 4, 4, 128) 35328 re_lu_160[0][0] __________________________________________________________________________________________________ batch_normalization_161 (BatchN (None, 4, 4, 128) 512 conv2d_164[0][0] __________________________________________________________________________________________________ re_lu_161 (ReLU) (None, 4, 4, 128) 0 batch_normalization_161[0][0] __________________________________________________________________________________________________ conv2d_165 (Conv2D) (None, 4, 4, 32) 36864 re_lu_161[0][0] __________________________________________________________________________________________________ concatenate_77 (Concatenate) (None, 4, 4, 308) 0 concatenate_76[0][0] conv2d_165[0][0] __________________________________________________________________________________________________ batch_normalization_162 (BatchN (None, 4, 4, 308) 1232 concatenate_77[0][0] __________________________________________________________________________________________________ re_lu_162 (ReLU) (None, 4, 4, 308) 0 batch_normalization_162[0][0] __________________________________________________________________________________________________ conv2d_166 (Conv2D) (None, 4, 4, 128) 39424 re_lu_162[0][0] __________________________________________________________________________________________________ batch_normalization_163 (BatchN (None, 4, 4, 128) 512 conv2d_166[0][0] __________________________________________________________________________________________________ re_lu_163 (ReLU) (None, 4, 4, 128) 0 batch_normalization_163[0][0] __________________________________________________________________________________________________ conv2d_167 (Conv2D) (None, 4, 4, 32) 36864 re_lu_163[0][0] __________________________________________________________________________________________________ concatenate_78 (Concatenate) (None, 4, 4, 340) 0 concatenate_77[0][0] conv2d_167[0][0] __________________________________________________________________________________________________ batch_normalization_164 (BatchN (None, 4, 4, 340) 1360 concatenate_78[0][0] __________________________________________________________________________________________________ re_lu_164 (ReLU) (None, 4, 4, 340) 0 batch_normalization_164[0][0] __________________________________________________________________________________________________ conv2d_168 (Conv2D) (None, 4, 4, 128) 43520 re_lu_164[0][0] __________________________________________________________________________________________________ batch_normalization_165 (BatchN (None, 4, 4, 128) 512 conv2d_168[0][0] __________________________________________________________________________________________________ re_lu_165 (ReLU) (None, 4, 4, 128) 0 batch_normalization_165[0][0] __________________________________________________________________________________________________ conv2d_169 (Conv2D) (None, 4, 4, 32) 36864 re_lu_165[0][0] __________________________________________________________________________________________________ concatenate_79 (Concatenate) (None, 4, 4, 372) 0 concatenate_78[0][0] conv2d_169[0][0] __________________________________________________________________________________________________ batch_normalization_166 (BatchN (None, 4, 4, 372) 1488 concatenate_79[0][0] __________________________________________________________________________________________________ re_lu_166 (ReLU) (None, 4, 4, 372) 0 batch_normalization_166[0][0] __________________________________________________________________________________________________ conv2d_170 (Conv2D) (None, 4, 4, 128) 47616 re_lu_166[0][0] __________________________________________________________________________________________________ batch_normalization_167 (BatchN (None, 4, 4, 128) 512 conv2d_170[0][0] __________________________________________________________________________________________________ re_lu_167 (ReLU) (None, 4, 4, 128) 0 batch_normalization_167[0][0] __________________________________________________________________________________________________ conv2d_171 (Conv2D) (None, 4, 4, 32) 36864 re_lu_167[0][0] __________________________________________________________________________________________________ concatenate_80 (Concatenate) (None, 4, 4, 404) 0 concatenate_79[0][0] conv2d_171[0][0] __________________________________________________________________________________________________ batch_normalization_168 (BatchN (None, 4, 4, 404) 1616 concatenate_80[0][0] __________________________________________________________________________________________________ re_lu_168 (ReLU) (None, 4, 4, 404) 0 batch_normalization_168[0][0] __________________________________________________________________________________________________ conv2d_172 (Conv2D) (None, 4, 4, 128) 51712 re_lu_168[0][0] __________________________________________________________________________________________________ batch_normalization_169 (BatchN (None, 4, 4, 128) 512 conv2d_172[0][0] __________________________________________________________________________________________________ re_lu_169 (ReLU) (None, 4, 4, 128) 0 batch_normalization_169[0][0] __________________________________________________________________________________________________ conv2d_173 (Conv2D) (None, 4, 4, 32) 36864 re_lu_169[0][0] __________________________________________________________________________________________________ concatenate_81 (Concatenate) (None, 4, 4, 436) 0 concatenate_80[0][0] conv2d_173[0][0] __________________________________________________________________________________________________ batch_normalization_170 (BatchN (None, 4, 4, 436) 1744 concatenate_81[0][0] __________________________________________________________________________________________________ re_lu_170 (ReLU) (None, 4, 4, 436) 0 batch_normalization_170[0][0] __________________________________________________________________________________________________ conv2d_174 (Conv2D) (None, 4, 4, 128) 55808 re_lu_170[0][0] __________________________________________________________________________________________________ batch_normalization_171 (BatchN (None, 4, 4, 128) 512 conv2d_174[0][0] __________________________________________________________________________________________________ re_lu_171 (ReLU) (None, 4, 4, 128) 0 batch_normalization_171[0][0] __________________________________________________________________________________________________ conv2d_175 (Conv2D) (None, 4, 4, 32) 36864 re_lu_171[0][0] __________________________________________________________________________________________________ concatenate_82 (Concatenate) (None, 4, 4, 468) 0 concatenate_81[0][0] conv2d_175[0][0] __________________________________________________________________________________________________ batch_normalization_172 (BatchN (None, 4, 4, 468) 1872 concatenate_82[0][0] __________________________________________________________________________________________________ re_lu_172 (ReLU) (None, 4, 4, 468) 0 batch_normalization_172[0][0] __________________________________________________________________________________________________ conv2d_176 (Conv2D) (None, 4, 4, 128) 59904 re_lu_172[0][0] __________________________________________________________________________________________________ batch_normalization_173 (BatchN (None, 4, 4, 128) 512 conv2d_176[0][0] __________________________________________________________________________________________________ re_lu_173 (ReLU) (None, 4, 4, 128) 0 batch_normalization_173[0][0] __________________________________________________________________________________________________ conv2d_177 (Conv2D) (None, 4, 4, 32) 36864 re_lu_173[0][0] __________________________________________________________________________________________________ concatenate_83 (Concatenate) (None, 4, 4, 500) 0 concatenate_82[0][0] conv2d_177[0][0] __________________________________________________________________________________________________ batch_normalization_174 (BatchN (None, 4, 4, 500) 2000 concatenate_83[0][0] __________________________________________________________________________________________________ re_lu_174 (ReLU) (None, 4, 4, 500) 0 batch_normalization_174[0][0] __________________________________________________________________________________________________ conv2d_178 (Conv2D) (None, 4, 4, 128) 64000 re_lu_174[0][0] __________________________________________________________________________________________________ batch_normalization_175 (BatchN (None, 4, 4, 128) 512 conv2d_178[0][0] __________________________________________________________________________________________________ re_lu_175 (ReLU) (None, 4, 4, 128) 0 batch_normalization_175[0][0] __________________________________________________________________________________________________ conv2d_179 (Conv2D) (None, 4, 4, 32) 36864 re_lu_175[0][0] __________________________________________________________________________________________________ concatenate_84 (Concatenate) (None, 4, 4, 532) 0 concatenate_83[0][0] conv2d_179[0][0] __________________________________________________________________________________________________ batch_normalization_176 (BatchN (None, 4, 4, 532) 2128 concatenate_84[0][0] __________________________________________________________________________________________________ re_lu_176 (ReLU) (None, 4, 4, 532) 0 batch_normalization_176[0][0] __________________________________________________________________________________________________ conv2d_180 (Conv2D) (None, 4, 4, 128) 68096 re_lu_176[0][0] __________________________________________________________________________________________________ batch_normalization_177 (BatchN (None, 4, 4, 128) 512 conv2d_180[0][0] __________________________________________________________________________________________________ re_lu_177 (ReLU) (None, 4, 4, 128) 0 batch_normalization_177[0][0] __________________________________________________________________________________________________ conv2d_181 (Conv2D) (None, 4, 4, 32) 36864 re_lu_177[0][0] __________________________________________________________________________________________________ concatenate_85 (Concatenate) (None, 4, 4, 564) 0 concatenate_84[0][0] conv2d_181[0][0] __________________________________________________________________________________________________ batch_normalization_178 (BatchN (None, 4, 4, 564) 2256 concatenate_85[0][0] __________________________________________________________________________________________________ re_lu_178 (ReLU) (None, 4, 4, 564) 0 batch_normalization_178[0][0] __________________________________________________________________________________________________ conv2d_182 (Conv2D) (None, 4, 4, 128) 72192 re_lu_178[0][0] __________________________________________________________________________________________________ batch_normalization_179 (BatchN (None, 4, 4, 128) 512 conv2d_182[0][0] __________________________________________________________________________________________________ re_lu_179 (ReLU) (None, 4, 4, 128) 0 batch_normalization_179[0][0] __________________________________________________________________________________________________ conv2d_183 (Conv2D) (None, 4, 4, 32) 36864 re_lu_179[0][0] __________________________________________________________________________________________________ concatenate_86 (Concatenate) (None, 4, 4, 596) 0 concatenate_85[0][0] conv2d_183[0][0] __________________________________________________________________________________________________ batch_normalization_180 (BatchN (None, 4, 4, 596) 2384 concatenate_86[0][0] __________________________________________________________________________________________________ re_lu_180 (ReLU) (None, 4, 4, 596) 0 batch_normalization_180[0][0] __________________________________________________________________________________________________ conv2d_184 (Conv2D) (None, 4, 4, 128) 76288 re_lu_180[0][0] __________________________________________________________________________________________________ batch_normalization_181 (BatchN (None, 4, 4, 128) 512 conv2d_184[0][0] __________________________________________________________________________________________________ re_lu_181 (ReLU) (None, 4, 4, 128) 0 batch_normalization_181[0][0] __________________________________________________________________________________________________ conv2d_185 (Conv2D) (None, 4, 4, 32) 36864 re_lu_181[0][0] __________________________________________________________________________________________________ concatenate_87 (Concatenate) (None, 4, 4, 628) 0 concatenate_86[0][0] conv2d_185[0][0] __________________________________________________________________________________________________ batch_normalization_182 (BatchN (None, 4, 4, 628) 2512 concatenate_87[0][0] __________________________________________________________________________________________________ re_lu_182 (ReLU) (None, 4, 4, 628) 0 batch_normalization_182[0][0] __________________________________________________________________________________________________ conv2d_186 (Conv2D) (None, 4, 4, 128) 80384 re_lu_182[0][0] __________________________________________________________________________________________________ batch_normalization_183 (BatchN (None, 4, 4, 128) 512 conv2d_186[0][0] __________________________________________________________________________________________________ re_lu_183 (ReLU) (None, 4, 4, 128) 0 batch_normalization_183[0][0] __________________________________________________________________________________________________ conv2d_187 (Conv2D) (None, 4, 4, 32) 36864 re_lu_183[0][0] __________________________________________________________________________________________________ concatenate_88 (Concatenate) (None, 4, 4, 660) 0 concatenate_87[0][0] conv2d_187[0][0] __________________________________________________________________________________________________ batch_normalization_184 (BatchN (None, 4, 4, 660) 2640 concatenate_88[0][0] __________________________________________________________________________________________________ re_lu_184 (ReLU) (None, 4, 4, 660) 0 batch_normalization_184[0][0] __________________________________________________________________________________________________ conv2d_188 (Conv2D) (None, 4, 4, 128) 84480 re_lu_184[0][0] __________________________________________________________________________________________________ batch_normalization_185 (BatchN (None, 4, 4, 128) 512 conv2d_188[0][0] __________________________________________________________________________________________________ re_lu_185 (ReLU) (None, 4, 4, 128) 0 batch_normalization_185[0][0] __________________________________________________________________________________________________ conv2d_189 (Conv2D) (None, 4, 4, 32) 36864 re_lu_185[0][0] __________________________________________________________________________________________________ concatenate_89 (Concatenate) (None, 4, 4, 692) 0 concatenate_88[0][0] conv2d_189[0][0] __________________________________________________________________________________________________ batch_normalization_186 (BatchN (None, 4, 4, 692) 2768 concatenate_89[0][0] __________________________________________________________________________________________________ re_lu_186 (ReLU) (None, 4, 4, 692) 0 batch_normalization_186[0][0] __________________________________________________________________________________________________ conv2d_190 (Conv2D) (None, 4, 4, 128) 88576 re_lu_186[0][0] __________________________________________________________________________________________________ batch_normalization_187 (BatchN (None, 4, 4, 128) 512 conv2d_190[0][0] __________________________________________________________________________________________________ re_lu_187 (ReLU) (None, 4, 4, 128) 0 batch_normalization_187[0][0] __________________________________________________________________________________________________ conv2d_191 (Conv2D) (None, 4, 4, 32) 36864 re_lu_187[0][0] __________________________________________________________________________________________________ concatenate_90 (Concatenate) (None, 4, 4, 724) 0 concatenate_89[0][0] conv2d_191[0][0] __________________________________________________________________________________________________ batch_normalization_188 (BatchN (None, 4, 4, 724) 2896 concatenate_90[0][0] __________________________________________________________________________________________________ re_lu_188 (ReLU) (None, 4, 4, 724) 0 batch_normalization_188[0][0] __________________________________________________________________________________________________ conv2d_192 (Conv2D) (None, 4, 4, 128) 92672 re_lu_188[0][0] __________________________________________________________________________________________________ batch_normalization_189 (BatchN (None, 4, 4, 128) 512 conv2d_192[0][0] __________________________________________________________________________________________________ re_lu_189 (ReLU) (None, 4, 4, 128) 0 batch_normalization_189[0][0] __________________________________________________________________________________________________ conv2d_193 (Conv2D) (None, 4, 4, 32) 36864 re_lu_189[0][0] __________________________________________________________________________________________________ concatenate_91 (Concatenate) (None, 4, 4, 756) 0 concatenate_90[0][0] conv2d_193[0][0] __________________________________________________________________________________________________ batch_normalization_190 (BatchN (None, 4, 4, 756) 3024 concatenate_91[0][0] __________________________________________________________________________________________________ re_lu_190 (ReLU) (None, 4, 4, 756) 0 batch_normalization_190[0][0] __________________________________________________________________________________________________ conv2d_194 (Conv2D) (None, 4, 4, 128) 96768 re_lu_190[0][0] __________________________________________________________________________________________________ batch_normalization_191 (BatchN (None, 4, 4, 128) 512 conv2d_194[0][0] __________________________________________________________________________________________________ re_lu_191 (ReLU) (None, 4, 4, 128) 0 batch_normalization_191[0][0] __________________________________________________________________________________________________ conv2d_195 (Conv2D) (None, 4, 4, 32) 36864 re_lu_191[0][0] __________________________________________________________________________________________________ concatenate_92 (Concatenate) (None, 4, 4, 788) 0 concatenate_91[0][0] conv2d_195[0][0] __________________________________________________________________________________________________ batch_normalization_192 (BatchN (None, 4, 4, 788) 3152 concatenate_92[0][0] __________________________________________________________________________________________________ re_lu_192 (ReLU) (None, 4, 4, 788) 0 batch_normalization_192[0][0] __________________________________________________________________________________________________ conv2d_196 (Conv2D) (None, 4, 4, 128) 100864 re_lu_192[0][0] __________________________________________________________________________________________________ batch_normalization_193 (BatchN (None, 4, 4, 128) 512 conv2d_196[0][0] __________________________________________________________________________________________________ re_lu_193 (ReLU) (None, 4, 4, 128) 0 batch_normalization_193[0][0] __________________________________________________________________________________________________ conv2d_197 (Conv2D) (None, 4, 4, 32) 36864 re_lu_193[0][0] __________________________________________________________________________________________________ concatenate_93 (Concatenate) (None, 4, 4, 820) 0 concatenate_92[0][0] conv2d_197[0][0] __________________________________________________________________________________________________ batch_normalization_194 (BatchN (None, 4, 4, 820) 3280 concatenate_93[0][0] __________________________________________________________________________________________________ re_lu_194 (ReLU) (None, 4, 4, 820) 0 batch_normalization_194[0][0] __________________________________________________________________________________________________ conv2d_198 (Conv2D) (None, 4, 4, 128) 104960 re_lu_194[0][0] __________________________________________________________________________________________________ batch_normalization_195 (BatchN (None, 4, 4, 128) 512 conv2d_198[0][0] __________________________________________________________________________________________________ re_lu_195 (ReLU) (None, 4, 4, 128) 0 batch_normalization_195[0][0] __________________________________________________________________________________________________ conv2d_199 (Conv2D) (None, 4, 4, 32) 36864 re_lu_195[0][0] __________________________________________________________________________________________________ concatenate_94 (Concatenate) (None, 4, 4, 852) 0 concatenate_93[0][0] conv2d_199[0][0] __________________________________________________________________________________________________ batch_normalization_196 (BatchN (None, 4, 4, 852) 3408 concatenate_94[0][0] __________________________________________________________________________________________________ re_lu_196 (ReLU) (None, 4, 4, 852) 0 batch_normalization_196[0][0] __________________________________________________________________________________________________ conv2d_200 (Conv2D) (None, 4, 4, 128) 109056 re_lu_196[0][0] __________________________________________________________________________________________________ batch_normalization_197 (BatchN (None, 4, 4, 128) 512 conv2d_200[0][0] __________________________________________________________________________________________________ re_lu_197 (ReLU) (None, 4, 4, 128) 0 batch_normalization_197[0][0] __________________________________________________________________________________________________ conv2d_201 (Conv2D) (None, 4, 4, 32) 36864 re_lu_197[0][0] __________________________________________________________________________________________________ concatenate_95 (Concatenate) (None, 4, 4, 884) 0 concatenate_94[0][0] conv2d_201[0][0] __________________________________________________________________________________________________ batch_normalization_198 (BatchN (None, 4, 4, 884) 3536 concatenate_95[0][0] __________________________________________________________________________________________________ re_lu_198 (ReLU) (None, 4, 4, 884) 0 batch_normalization_198[0][0] __________________________________________________________________________________________________ conv2d_202 (Conv2D) (None, 4, 4, 128) 113152 re_lu_198[0][0] __________________________________________________________________________________________________ batch_normalization_199 (BatchN (None, 4, 4, 128) 512 conv2d_202[0][0] __________________________________________________________________________________________________ re_lu_199 (ReLU) (None, 4, 4, 128) 0 batch_normalization_199[0][0] __________________________________________________________________________________________________ conv2d_203 (Conv2D) (None, 4, 4, 32) 36864 re_lu_199[0][0] __________________________________________________________________________________________________ concatenate_96 (Concatenate) (None, 4, 4, 916) 0 concatenate_95[0][0] conv2d_203[0][0] __________________________________________________________________________________________________ batch_normalization_200 (BatchN (None, 4, 4, 916) 3664 concatenate_96[0][0] __________________________________________________________________________________________________ re_lu_200 (ReLU) (None, 4, 4, 916) 0 batch_normalization_200[0][0] __________________________________________________________________________________________________ conv2d_204 (Conv2D) (None, 4, 4, 128) 117248 re_lu_200[0][0] __________________________________________________________________________________________________ batch_normalization_201 (BatchN (None, 4, 4, 128) 512 conv2d_204[0][0] __________________________________________________________________________________________________ re_lu_201 (ReLU) (None, 4, 4, 128) 0 batch_normalization_201[0][0] __________________________________________________________________________________________________ conv2d_205 (Conv2D) (None, 4, 4, 32) 36864 re_lu_201[0][0] __________________________________________________________________________________________________ concatenate_97 (Concatenate) (None, 4, 4, 948) 0 concatenate_96[0][0] conv2d_205[0][0] __________________________________________________________________________________________________ batch_normalization_202 (BatchN (None, 4, 4, 948) 3792 concatenate_97[0][0] __________________________________________________________________________________________________ re_lu_202 (ReLU) (None, 4, 4, 948) 0 batch_normalization_202[0][0] __________________________________________________________________________________________________ conv2d_206 (Conv2D) (None, 4, 4, 128) 121344 re_lu_202[0][0] __________________________________________________________________________________________________ batch_normalization_203 (BatchN (None, 4, 4, 128) 512 conv2d_206[0][0] __________________________________________________________________________________________________ re_lu_203 (ReLU) (None, 4, 4, 128) 0 batch_normalization_203[0][0] __________________________________________________________________________________________________ conv2d_207 (Conv2D) (None, 4, 4, 32) 36864 re_lu_203[0][0] __________________________________________________________________________________________________ concatenate_98 (Concatenate) (None, 4, 4, 980) 0 concatenate_97[0][0] conv2d_207[0][0] __________________________________________________________________________________________________ batch_normalization_204 (BatchN (None, 4, 4, 980) 3920 concatenate_98[0][0] __________________________________________________________________________________________________ re_lu_204 (ReLU) (None, 4, 4, 980) 0 batch_normalization_204[0][0] __________________________________________________________________________________________________ conv2d_208 (Conv2D) (None, 4, 4, 128) 125440 re_lu_204[0][0] __________________________________________________________________________________________________ batch_normalization_205 (BatchN (None, 4, 4, 128) 512 conv2d_208[0][0] __________________________________________________________________________________________________ re_lu_205 (ReLU) (None, 4, 4, 128) 0 batch_normalization_205[0][0] __________________________________________________________________________________________________ conv2d_209 (Conv2D) (None, 4, 4, 32) 36864 re_lu_205[0][0] __________________________________________________________________________________________________ concatenate_99 (Concatenate) (None, 4, 4, 1012) 0 concatenate_98[0][0] conv2d_209[0][0] __________________________________________________________________________________________________ batch_normalization_206 (BatchN (None, 4, 4, 1012) 4048 concatenate_99[0][0] __________________________________________________________________________________________________ re_lu_206 (ReLU) (None, 4, 4, 1012) 0 batch_normalization_206[0][0] __________________________________________________________________________________________________ conv2d_210 (Conv2D) (None, 4, 4, 506) 512072 re_lu_206[0][0] __________________________________________________________________________________________________ average_pooling2d_6 (AveragePoo (None, 2, 2, 506) 0 conv2d_210[0][0] __________________________________________________________________________________________________ batch_normalization_207 (BatchN (None, 2, 2, 506) 2024 average_pooling2d_6[0][0] __________________________________________________________________________________________________ re_lu_207 (ReLU) (None, 2, 2, 506) 0 batch_normalization_207[0][0] __________________________________________________________________________________________________ conv2d_211 (Conv2D) (None, 2, 2, 128) 64768 re_lu_207[0][0] __________________________________________________________________________________________________ batch_normalization_208 (BatchN (None, 2, 2, 128) 512 conv2d_211[0][0] __________________________________________________________________________________________________ re_lu_208 (ReLU) (None, 2, 2, 128) 0 batch_normalization_208[0][0] __________________________________________________________________________________________________ conv2d_212 (Conv2D) (None, 2, 2, 32) 36864 re_lu_208[0][0] __________________________________________________________________________________________________ concatenate_100 (Concatenate) (None, 2, 2, 538) 0 average_pooling2d_6[0][0] conv2d_212[0][0] __________________________________________________________________________________________________ batch_normalization_209 (BatchN (None, 2, 2, 538) 2152 concatenate_100[0][0] __________________________________________________________________________________________________ re_lu_209 (ReLU) (None, 2, 2, 538) 0 batch_normalization_209[0][0] __________________________________________________________________________________________________ conv2d_213 (Conv2D) (None, 2, 2, 128) 68864 re_lu_209[0][0] __________________________________________________________________________________________________ batch_normalization_210 (BatchN (None, 2, 2, 128) 512 conv2d_213[0][0] __________________________________________________________________________________________________ re_lu_210 (ReLU) (None, 2, 2, 128) 0 batch_normalization_210[0][0] __________________________________________________________________________________________________ conv2d_214 (Conv2D) (None, 2, 2, 32) 36864 re_lu_210[0][0] __________________________________________________________________________________________________ concatenate_101 (Concatenate) (None, 2, 2, 570) 0 concatenate_100[0][0] conv2d_214[0][0] __________________________________________________________________________________________________ batch_normalization_211 (BatchN (None, 2, 2, 570) 2280 concatenate_101[0][0] __________________________________________________________________________________________________ re_lu_211 (ReLU) (None, 2, 2, 570) 0 batch_normalization_211[0][0] __________________________________________________________________________________________________ conv2d_215 (Conv2D) (None, 2, 2, 128) 72960 re_lu_211[0][0] __________________________________________________________________________________________________ batch_normalization_212 (BatchN (None, 2, 2, 128) 512 conv2d_215[0][0] __________________________________________________________________________________________________ re_lu_212 (ReLU) (None, 2, 2, 128) 0 batch_normalization_212[0][0] __________________________________________________________________________________________________ conv2d_216 (Conv2D) (None, 2, 2, 32) 36864 re_lu_212[0][0] __________________________________________________________________________________________________ concatenate_102 (Concatenate) (None, 2, 2, 602) 0 concatenate_101[0][0] conv2d_216[0][0] __________________________________________________________________________________________________ batch_normalization_213 (BatchN (None, 2, 2, 602) 2408 concatenate_102[0][0] __________________________________________________________________________________________________ re_lu_213 (ReLU) (None, 2, 2, 602) 0 batch_normalization_213[0][0] __________________________________________________________________________________________________ conv2d_217 (Conv2D) (None, 2, 2, 128) 77056 re_lu_213[0][0] __________________________________________________________________________________________________ batch_normalization_214 (BatchN (None, 2, 2, 128) 512 conv2d_217[0][0] __________________________________________________________________________________________________ re_lu_214 (ReLU) (None, 2, 2, 128) 0 batch_normalization_214[0][0] __________________________________________________________________________________________________ conv2d_218 (Conv2D) (None, 2, 2, 32) 36864 re_lu_214[0][0] __________________________________________________________________________________________________ concatenate_103 (Concatenate) (None, 2, 2, 634) 0 concatenate_102[0][0] conv2d_218[0][0] __________________________________________________________________________________________________ batch_normalization_215 (BatchN (None, 2, 2, 634) 2536 concatenate_103[0][0] __________________________________________________________________________________________________ re_lu_215 (ReLU) (None, 2, 2, 634) 0 batch_normalization_215[0][0] __________________________________________________________________________________________________ conv2d_219 (Conv2D) (None, 2, 2, 128) 81152 re_lu_215[0][0] __________________________________________________________________________________________________ batch_normalization_216 (BatchN (None, 2, 2, 128) 512 conv2d_219[0][0] __________________________________________________________________________________________________ re_lu_216 (ReLU) (None, 2, 2, 128) 0 batch_normalization_216[0][0] __________________________________________________________________________________________________ conv2d_220 (Conv2D) (None, 2, 2, 32) 36864 re_lu_216[0][0] __________________________________________________________________________________________________ concatenate_104 (Concatenate) (None, 2, 2, 666) 0 concatenate_103[0][0] conv2d_220[0][0] __________________________________________________________________________________________________ batch_normalization_217 (BatchN (None, 2, 2, 666) 2664 concatenate_104[0][0] __________________________________________________________________________________________________ re_lu_217 (ReLU) (None, 2, 2, 666) 0 batch_normalization_217[0][0] __________________________________________________________________________________________________ conv2d_221 (Conv2D) (None, 2, 2, 128) 85248 re_lu_217[0][0] __________________________________________________________________________________________________ batch_normalization_218 (BatchN (None, 2, 2, 128) 512 conv2d_221[0][0] __________________________________________________________________________________________________ re_lu_218 (ReLU) (None, 2, 2, 128) 0 batch_normalization_218[0][0] __________________________________________________________________________________________________ conv2d_222 (Conv2D) (None, 2, 2, 32) 36864 re_lu_218[0][0] __________________________________________________________________________________________________ concatenate_105 (Concatenate) (None, 2, 2, 698) 0 concatenate_104[0][0] conv2d_222[0][0] __________________________________________________________________________________________________ batch_normalization_219 (BatchN (None, 2, 2, 698) 2792 concatenate_105[0][0] __________________________________________________________________________________________________ re_lu_219 (ReLU) (None, 2, 2, 698) 0 batch_normalization_219[0][0] __________________________________________________________________________________________________ conv2d_223 (Conv2D) (None, 2, 2, 128) 89344 re_lu_219[0][0] __________________________________________________________________________________________________ batch_normalization_220 (BatchN (None, 2, 2, 128) 512 conv2d_223[0][0] __________________________________________________________________________________________________ re_lu_220 (ReLU) (None, 2, 2, 128) 0 batch_normalization_220[0][0] __________________________________________________________________________________________________ conv2d_224 (Conv2D) (None, 2, 2, 32) 36864 re_lu_220[0][0] __________________________________________________________________________________________________ concatenate_106 (Concatenate) (None, 2, 2, 730) 0 concatenate_105[0][0] conv2d_224[0][0] __________________________________________________________________________________________________ batch_normalization_221 (BatchN (None, 2, 2, 730) 2920 concatenate_106[0][0] __________________________________________________________________________________________________ re_lu_221 (ReLU) (None, 2, 2, 730) 0 batch_normalization_221[0][0] __________________________________________________________________________________________________ conv2d_225 (Conv2D) (None, 2, 2, 128) 93440 re_lu_221[0][0] __________________________________________________________________________________________________ batch_normalization_222 (BatchN (None, 2, 2, 128) 512 conv2d_225[0][0] __________________________________________________________________________________________________ re_lu_222 (ReLU) (None, 2, 2, 128) 0 batch_normalization_222[0][0] __________________________________________________________________________________________________ conv2d_226 (Conv2D) (None, 2, 2, 32) 36864 re_lu_222[0][0] __________________________________________________________________________________________________ concatenate_107 (Concatenate) (None, 2, 2, 762) 0 concatenate_106[0][0] conv2d_226[0][0] __________________________________________________________________________________________________ batch_normalization_223 (BatchN (None, 2, 2, 762) 3048 concatenate_107[0][0] __________________________________________________________________________________________________ re_lu_223 (ReLU) (None, 2, 2, 762) 0 batch_normalization_223[0][0] __________________________________________________________________________________________________ conv2d_227 (Conv2D) (None, 2, 2, 128) 97536 re_lu_223[0][0] __________________________________________________________________________________________________ batch_normalization_224 (BatchN (None, 2, 2, 128) 512 conv2d_227[0][0] __________________________________________________________________________________________________ re_lu_224 (ReLU) (None, 2, 2, 128) 0 batch_normalization_224[0][0] __________________________________________________________________________________________________ conv2d_228 (Conv2D) (None, 2, 2, 32) 36864 re_lu_224[0][0] __________________________________________________________________________________________________ concatenate_108 (Concatenate) (None, 2, 2, 794) 0 concatenate_107[0][0] conv2d_228[0][0] __________________________________________________________________________________________________ batch_normalization_225 (BatchN (None, 2, 2, 794) 3176 concatenate_108[0][0] __________________________________________________________________________________________________ re_lu_225 (ReLU) (None, 2, 2, 794) 0 batch_normalization_225[0][0] __________________________________________________________________________________________________ conv2d_229 (Conv2D) (None, 2, 2, 128) 101632 re_lu_225[0][0] __________________________________________________________________________________________________ batch_normalization_226 (BatchN (None, 2, 2, 128) 512 conv2d_229[0][0] __________________________________________________________________________________________________ re_lu_226 (ReLU) (None, 2, 2, 128) 0 batch_normalization_226[0][0] __________________________________________________________________________________________________ conv2d_230 (Conv2D) (None, 2, 2, 32) 36864 re_lu_226[0][0] __________________________________________________________________________________________________ concatenate_109 (Concatenate) (None, 2, 2, 826) 0 concatenate_108[0][0] conv2d_230[0][0] __________________________________________________________________________________________________ batch_normalization_227 (BatchN (None, 2, 2, 826) 3304 concatenate_109[0][0] __________________________________________________________________________________________________ re_lu_227 (ReLU) (None, 2, 2, 826) 0 batch_normalization_227[0][0] __________________________________________________________________________________________________ conv2d_231 (Conv2D) (None, 2, 2, 128) 105728 re_lu_227[0][0] __________________________________________________________________________________________________ batch_normalization_228 (BatchN (None, 2, 2, 128) 512 conv2d_231[0][0] __________________________________________________________________________________________________ re_lu_228 (ReLU) (None, 2, 2, 128) 0 batch_normalization_228[0][0] __________________________________________________________________________________________________ conv2d_232 (Conv2D) (None, 2, 2, 32) 36864 re_lu_228[0][0] __________________________________________________________________________________________________ concatenate_110 (Concatenate) (None, 2, 2, 858) 0 concatenate_109[0][0] conv2d_232[0][0] __________________________________________________________________________________________________ batch_normalization_229 (BatchN (None, 2, 2, 858) 3432 concatenate_110[0][0] __________________________________________________________________________________________________ re_lu_229 (ReLU) (None, 2, 2, 858) 0 batch_normalization_229[0][0] __________________________________________________________________________________________________ conv2d_233 (Conv2D) (None, 2, 2, 128) 109824 re_lu_229[0][0] __________________________________________________________________________________________________ batch_normalization_230 (BatchN (None, 2, 2, 128) 512 conv2d_233[0][0] __________________________________________________________________________________________________ re_lu_230 (ReLU) (None, 2, 2, 128) 0 batch_normalization_230[0][0] __________________________________________________________________________________________________ conv2d_234 (Conv2D) (None, 2, 2, 32) 36864 re_lu_230[0][0] __________________________________________________________________________________________________ concatenate_111 (Concatenate) (None, 2, 2, 890) 0 concatenate_110[0][0] conv2d_234[0][0] __________________________________________________________________________________________________ batch_normalization_231 (BatchN (None, 2, 2, 890) 3560 concatenate_111[0][0] __________________________________________________________________________________________________ re_lu_231 (ReLU) (None, 2, 2, 890) 0 batch_normalization_231[0][0] __________________________________________________________________________________________________ conv2d_235 (Conv2D) (None, 2, 2, 128) 113920 re_lu_231[0][0] __________________________________________________________________________________________________ batch_normalization_232 (BatchN (None, 2, 2, 128) 512 conv2d_235[0][0] __________________________________________________________________________________________________ re_lu_232 (ReLU) (None, 2, 2, 128) 0 batch_normalization_232[0][0] __________________________________________________________________________________________________ conv2d_236 (Conv2D) (None, 2, 2, 32) 36864 re_lu_232[0][0] __________________________________________________________________________________________________ concatenate_112 (Concatenate) (None, 2, 2, 922) 0 concatenate_111[0][0] conv2d_236[0][0] __________________________________________________________________________________________________ batch_normalization_233 (BatchN (None, 2, 2, 922) 3688 concatenate_112[0][0] __________________________________________________________________________________________________ re_lu_233 (ReLU) (None, 2, 2, 922) 0 batch_normalization_233[0][0] __________________________________________________________________________________________________ conv2d_237 (Conv2D) (None, 2, 2, 128) 118016 re_lu_233[0][0] __________________________________________________________________________________________________ batch_normalization_234 (BatchN (None, 2, 2, 128) 512 conv2d_237[0][0] __________________________________________________________________________________________________ re_lu_234 (ReLU) (None, 2, 2, 128) 0 batch_normalization_234[0][0] __________________________________________________________________________________________________ conv2d_238 (Conv2D) (None, 2, 2, 32) 36864 re_lu_234[0][0] __________________________________________________________________________________________________ concatenate_113 (Concatenate) (None, 2, 2, 954) 0 concatenate_112[0][0] conv2d_238[0][0] __________________________________________________________________________________________________ batch_normalization_235 (BatchN (None, 2, 2, 954) 3816 concatenate_113[0][0] __________________________________________________________________________________________________ re_lu_235 (ReLU) (None, 2, 2, 954) 0 batch_normalization_235[0][0] __________________________________________________________________________________________________ conv2d_239 (Conv2D) (None, 2, 2, 128) 122112 re_lu_235[0][0] __________________________________________________________________________________________________ batch_normalization_236 (BatchN (None, 2, 2, 128) 512 conv2d_239[0][0] __________________________________________________________________________________________________ re_lu_236 (ReLU) (None, 2, 2, 128) 0 batch_normalization_236[0][0] __________________________________________________________________________________________________ conv2d_240 (Conv2D) (None, 2, 2, 32) 36864 re_lu_236[0][0] __________________________________________________________________________________________________ concatenate_114 (Concatenate) (None, 2, 2, 986) 0 concatenate_113[0][0] conv2d_240[0][0] __________________________________________________________________________________________________ batch_normalization_237 (BatchN (None, 2, 2, 986) 3944 concatenate_114[0][0] __________________________________________________________________________________________________ re_lu_237 (ReLU) (None, 2, 2, 986) 0 batch_normalization_237[0][0] __________________________________________________________________________________________________ conv2d_241 (Conv2D) (None, 2, 2, 128) 126208 re_lu_237[0][0] __________________________________________________________________________________________________ batch_normalization_238 (BatchN (None, 2, 2, 128) 512 conv2d_241[0][0] __________________________________________________________________________________________________ re_lu_238 (ReLU) (None, 2, 2, 128) 0 batch_normalization_238[0][0] __________________________________________________________________________________________________ conv2d_242 (Conv2D) (None, 2, 2, 32) 36864 re_lu_238[0][0] __________________________________________________________________________________________________ concatenate_115 (Concatenate) (None, 2, 2, 1018) 0 concatenate_114[0][0] conv2d_242[0][0] __________________________________________________________________________________________________ global_average_pooling2d_1 (Glo (None, 1018) 0 concatenate_115[0][0] __________________________________________________________________________________________________ dense_1 (Dense) (None, 100) 101900 global_average_pooling2d_1[0][0] __________________________________________________________________________________________________ activation_1 (Activation) (None, 100) 0 dense_1[0][0] ================================================================================================== Total params: 6,965,604 Trainable params: 6,886,220 Non-trainable params: 79,384 __________________________________________________________________________________________________ 1 2 3 model.compile(loss = 'categorical_crossentropy', optimizer=tf.keras.optimizers.Adam(lr=0.001), metri
…
 growth_rate[i]) outputs = Conv2D(num_classes, kernel_size=(1,1), strides=(1,1), kernel_initializer='he_normal', activation='sigmoid')(x) model = Model(input, outputs) return model 1 2 3 4 5 6 filters = 32 num_classes = 1 img_shape = (224, 224, 1) model = get_unet(filters, num_classes, img_shape) model.summary() Model: \"model_1\" __________________________________________________________________________________________________ Layer (type) Output Shape Param # Connected to ================================================================================================== input_2 (InputLayer) [(None, 224, 224, 1) 0 __________________________________________________________________________________________________ conv2d_19 (Conv2D) (None, 224, 224, 32) 320 input_2[0][0] __________________________________________________________________________________________________ re_lu_18 (ReLU) (None, 224, 224, 32) 0 conv2d_19[0][0] __________________________________________________________________________________________________ conv2d_20 (Conv2D) (None, 224, 224, 32) 9248 re_lu_18[0][0] __________________________________________________________________________________________________ re_lu_19 (ReLU) (None, 224, 224, 32) 0 conv2d_20[0][0] __________________________________________________________________________________________________ max_pooling2d_4 (MaxPooling2D) (None, 112, 112, 32) 0 re_lu_19[0][0] __________________________________________________________________________________________________ conv2d_21 (Conv2D) (None, 112, 112, 64) 18496 max_pooling2d_4[0][0] __________________________________________________________________________________________________ re_lu_20 (ReLU) (None, 112, 112, 64) 0 conv2d_21[0][0] __________________________________________________________________________________________________ conv2d_22 (Conv2D) (None, 112, 112, 64) 36928 re_lu_20[0][0] __________________________________________________________________________________________________ re_lu_21 (ReLU) (None, 112, 112, 64) 0 conv2d_22[0][0] __________________________________________________________________________________________________ max_pooling2d_5 (MaxPooling2D) (None, 56, 56, 64) 0 re_lu_21[0][0] __________________________________________________________________________________________________ conv2d_23 (Conv2D) (None, 56, 56, 128) 73856 max_pooling2d_5[0][0] __________________________________________________________________________________________________ re_lu_22 (ReLU) (None, 56, 56, 128) 0 conv2d_23[0][0] __________________________________________________________________________________________________ conv2d_24 (Conv2D) (None, 56, 56, 128) 147584 re_lu_22[0][0] __________________________________________________________________________________________________ re_lu_23 (ReLU) (None, 56, 56, 128) 0 conv2d_24[0][0] __________________________________________________________________________________________________ max_pooling2d_6 (MaxPooling2D) (None, 28, 28, 128) 0 re_lu_23[0][0] __________________________________________________________________________________________________ conv2d_25 (Conv2D) (None, 28, 28, 256) 295168 max_pooling2d_6[0][0] __________________________________________________________________________________________________ re_lu_24 (ReLU) (None, 28, 28, 256) 0 conv2d_25[0][0] __________________________________________________________________________________________________ conv2d_26 (Conv2D) (None, 28, 28, 256) 590080 re_lu_24[0][0] __________________________________________________________________________________________________ re_lu_25 (ReLU) (None, 28, 28, 256) 0 conv2d_26[0][0] __________________________________________________________________________________________________ max_pooling2d_7 (MaxPooling2D) (None, 14, 14, 256) 0 re_lu_25[0][0] __________________________________________________________________________________________________ conv2d_27 (Conv2D) (None, 14, 14, 512) 1180160 max_pooling2d_7[0][0] __________________________________________________________________________________________________ re_lu_26 (ReLU) (None, 14, 14, 512) 0 conv2d_27[0][0] __________________________________________________________________________________________________ conv2d_28 (Conv2D) (None, 14, 14, 512) 2359808 re_lu_26[0][0] __________________________________________________________________________________________________ re_lu_27 (ReLU) (None, 14, 14, 512) 0 conv2d_28[0][0] __________________________________________________________________________________________________ conv2d_transpose_4 (Conv2DTrans (None, 28, 28, 256) 524544 re_lu_27[0][0] __________________________________________________________________________________________________ concatenate_4 (Concatenate) (None, 28, 28, 512) 0 conv2d_transpose_4[0][0] re_lu_25[0][0] __________________________________________________________________________________________________ conv2d_29 (Conv2D) (None, 28, 28, 32) 147488 concatenate_4[0][0] __________________________________________________________________________________________________ re_lu_28 (ReLU) (None, 28, 28, 32) 0 conv2d_29[0][0] __________________________________________________________________________________________________ conv2d_30 (Conv2D) (None, 28, 28, 32) 9248 re_lu_28[0][0] __________________________________________________________________________________________________ re_lu_29 (ReLU) (None, 28, 28, 32) 0 conv2d_30[0][0] __________________________________________________________________________________________________ conv2d_transpose_5 (Conv2DTrans (None, 56, 56, 128) 16512 re_lu_29[0][0] __________________________________________________________________________________________________ concatenate_5 (Concatenate) (None, 56, 56, 256) 0 conv2d_transpose_5[0][0] re_lu_23[0][0] __________________________________________________________________________________________________ conv2d_31 (Conv2D) (None, 56, 56, 64) 147520 concatenate_5[0][0] __________________________________________________________________________________________________ re_lu_30 (ReLU) (None, 56, 56, 64) 0 conv2d_31[0][0] __________________________________________________________________________________________________ conv2d_32 (Conv2D) (None, 56, 56, 64) 36928 re_lu_30[0][0] __________________________________________________________________________________________________ re_lu_31 (ReLU) (None, 56, 56, 64) 0 conv2d_32[0][0] __________________________________________________________________________________________________ conv2d_transpose_6 (Conv2DTrans (None, 112, 112, 64) 16448 re_lu_31[0][0] __________________________________________________________________________________________________ concatenate_6 (Concatenate) (None, 112, 112, 128 0 conv2d_transpose_6[0][0] re_lu_21[0][0] __________________________________________________________________________________________________ conv2d_33 (Conv2D) (None, 112, 112, 128 147584 concatenate_6[0][0] ____________________________
…
ensenet103 1 2 3 4 5 6 7 8 filters = 16 nb_blocks = 5 nb_layers = [4, 5, 7, 10, 12 ,15, 12, 10, 7, 5, 4] img_shape = (224,224,3) # Free up RAM in case the model definition cells were run multiple times keras.backend.clear_session() model = FCDensenet(filters, nb_layers, img_shape, num_classes=32) 1 model.summary() Model: \"model\" __________________________________________________________________________________________________ Layer (type) Output Shape Param # Connected to ================================================================================================== input_1 (InputLayer) [(None, 224, 224, 3) 0 __________________________________________________________________________________________________ conv2d (Conv2D) (None, 224, 224, 48) 1344 input_1[0][0] __________________________________________________________________________________________________ batch_normalization (BatchNorma (None, 224, 224, 48) 192 conv2d[0][0] __________________________________________________________________________________________________ re_lu (ReLU) (None, 224, 224, 48) 0 batch_normalization[0][0] __________________________________________________________________________________________________ conv2d_1 (Conv2D) (None, 224, 224, 16) 6928 re_lu[0][0] __________________________________________________________________________________________________ dropout (Dropout) (None, 224, 224, 16) 0 conv2d_1[0][0] __________________________________________________________________________________________________ concatenate (Concatenate) (None, 224, 224, 64) 0 conv2d[0][0] dropout[0][0] __________________________________________________________________________________________________ batch_normalization_1 (BatchNor (None, 224, 224, 64) 256 concatenate[0][0] __________________________________________________________________________________________________ re_lu_1 (ReLU) (None, 224, 224, 64) 0 batch_normalization_1[0][0] __________________________________________________________________________________________________ conv2d_2 (Conv2D) (None, 224, 224, 16) 9232 re_lu_1[0][0] __________________________________________________________________________________________________ dropout_1 (Dropout) (None, 224, 224, 16) 0 conv2d_2[0][0] __________________________________________________________________________________________________ concatenate_1 (Concatenate) (None, 224, 224, 80) 0 concatenate[0][0] dropout_1[0][0] __________________________________________________________________________________________________ batch_normalization_2 (BatchNor (None, 224, 224, 80) 320 concatenate_1[0][0] __________________________________________________________________________________________________ re_lu_2 (ReLU) (None, 224, 224, 80) 0 batch_normalization_2[0][0] __________________________________________________________________________________________________ conv2d_3 (Conv2D) (None, 224, 224, 16) 11536 re_lu_2[0][0] __________________________________________________________________________________________________ dropout_2 (Dropout) (None, 224, 224, 16) 0 conv2d_3[0][0] __________________________________________________________________________________________________ concatenate_2 (Concatenate) (None, 224, 224, 96) 0 concatenate_1[0][0] dropout_2[0][0] __________________________________________________________________________________________________ batch_normalization_3 (BatchNor (None, 224, 224, 96) 384 concatenate_2[0][0] __________________________________________________________________________________________________ re_lu_3 (ReLU) (None, 224, 224, 96) 0 batch_normalization_3[0][0] __________________________________________________________________________________________________ conv2d_4 (Conv2D) (None, 224, 224, 16) 13840 re_lu_3[0][0] __________________________________________________________________________________________________ dropout_3 (Dropout) (None, 224, 224, 16) 0 conv2d_4[0][0] __________________________________________________________________________________________________ concatenate_3 (Concatenate) (None, 224, 224, 64) 0 dropout_3[0][0] dropout_2[0][0] dropout_1[0][0] dropout[0][0] __________________________________________________________________________________________________ concatenate_4 (Concatenate) (None, 224, 224, 112 0 concatenate_3[0][0] conv2d[0][0] __________________________________________________________________________________________________ batch_normalization_4 (BatchNor (None, 224, 224, 112 44
…
_________________________________________________________________________ max_pooling2d (MaxPooling2D) (None, 112, 112, 112 0 dropout_4[0][0] __________________________________________________________________________________________________ batch_normalization_5 (BatchNor (None, 112, 112, 112 448 max_pooling2d[0][0] __________________________________________________________________________________________________ re_lu_5 (ReLU) (None, 112, 112, 112 0 batch_normalization_5[0][0] __________________________________________________________________________________________________ conv2d_6 (Conv2D) (None, 112, 112, 16) 16144 re_lu_5[0][0] __________________________________________________________________________________________________ dropout_5 (Dropout) (None, 112, 112, 16) 0 conv2d_6[0][0] __________________________________________________________________________________________________ concatenate_5 (Concatenate) (None, 112, 112, 128 0 max_pooling2d[0][0] dropout_5[0][0] __________________________________________________________________________________________________ batch_normalization_6 (BatchNor (None, 112, 112, 128 512 concatenate_5[0][0] __________________________________________________________________________________________________ re_lu_6 (ReLU) (None, 112, 112, 128 0 batch_normalization_6[0][0] __________________________________________________________________________________________________ conv2d_7 (Conv2D) (None, 112, 112, 16) 18448 re_lu_6[0][0] __________________________________________________________________________________________________ dropout_6 (Dropout) (None, 112, 112, 16) 0 conv2d_7[0][0] __________________________________________________________________________________________________ concatenate_6 (Concatenate) (None, 112, 112, 144 0 concatenate_5[0][0] dropout_6[0][0] __________________________________________________________________________________________________ batch_normalization_7 (BatchNor (None, 112, 112, 144 576 concatenate_6[0][0] __________________________________________________________________________________________________ re_lu_7 (ReLU) (None, 112, 112, 144 0 batch_normalization_7[0][0] __________________________________________________________________________________________________ conv2d_8 (Conv2D) (None, 112, 112, 16) 20752 re_lu_7[0][0] __________________________________________________________________________________________________ dropout_7 (Dropout) (None, 112, 112, 16) 0 conv2d_8[0][0] __________________________________________________________________________________________________ concatenate_7 (Concatenate) (None, 112, 112, 160 0 concatenate_6[0][0] dropout_7[0][0] __________________________________________________________________________________________________ batch_normalization_8 (BatchNor (None, 112, 112, 160 640 concatenate_7[0][0] __________________________________________________________________________________________________ re_lu_8 (ReLU) (None, 112, 112, 160 0 batch_normalization_8[0][0] __________________________________________________________________________________________________ conv2d_9 (Conv2D) (None, 112, 112, 16) 23056 re_lu_8[0][0] __________________________________________________________________________________________________ dropout_8 (Dropout) (None, 112, 112, 16) 0 conv2d_9[0][0] __________________________________________________________________________________________________ concatenate_8 (Concatenate) (None, 112, 112, 176 0 concatenate_7[0][0] dropout_8[0][0] __________________________________________________________________________________________________ batch_normalization_9 (BatchNor (None, 112, 112, 176 704 concatenate_8[0][0] __________________________________________________________________________________________________ re_lu_9 (ReLU) (None, 112, 112, 176 0 batch_normalization_9[0][0] __________________________________________________________________________________________________ conv2d_10 (Conv2D) (None, 112, 112, 16) 25360 re_lu_9[0][0] __________________________________________________________________________________________________ dropout_9 (Dropout) (None, 112, 112, 16) 0 conv2d_10[0][0] __________________________________________________________________________________________________ concatenate_9 (Concatenate) (None, 112, 112, 80) 0 dropout_9[0][0] dropout_8[0][0] dropout_7[0][0] dropout_6[0][0] dropout_5[0][0] __________________________________________________________________________________________________ concatenate_10 (Concatenate) (None, 112, 112, 192 0 concatenate_9[0][0] max_pooling2d[0][0] __________________________________________________________________________________________________ batch_normalization_10 (Batch
…
__________________________________________________________________________________ re_lu_10 (ReLU) (None, 112, 112, 192 0 batch_normalization_10[0][0] __________________________________________________________________________________________________ conv2d_11 (Conv2D) (None, 112, 112, 192 37056 re_lu_10[0][0] __________________________________________________________________________________________________ dropout_10 (Dropout) (None, 112, 112, 192 0 conv2d_11[0][0] __________________________________________________________________________________________________ max_pooling2d_1 (MaxPooling2D) (None, 56, 56, 192) 0 dropout_10[0][0] __________________________________________________________________________________________________ batch_normalization_11 (BatchNo (None, 56, 56, 192) 768 max_pooling2d_1[0][0] __________________________________________________________________________________________________ re_lu_11 (ReLU) (None, 56, 56, 192) 0 batch_normalization_11[0][0] __________________________________________________________________________________________________ conv2d_12 (Conv2D) (None, 56, 56, 16) 27664 re_lu_11[0][0] __________________________________________________________________________________________________ dropout_11 (Dropout) (None, 56, 56, 16) 0 conv2d_12[0][0] __________________________________________________________________________________________________ concatenate_11 (Concatenate) (None, 56, 56, 208) 0 max_pooling2d_1[0][0] dropout_11[0][0] __________________________________________________________________________________________________ batch_normalization_12 (BatchNo (None, 56, 56, 208) 832 concatenate_11[0][0] __________________________________________________________________________________________________ re_lu_12 (ReLU) (None, 56, 56, 208) 0 batch_normalization_12[0][0] __________________________________________________________________________________________________ conv2d_13 (Conv2D) (None, 56, 56, 16) 29968 re_lu_12[0][0] __________________________________________________________________________________________________ dropout_12 (Dropout) (None, 56, 56, 16) 0 conv2d_13[0][0] __________________________________________________________________________________________________ concatenate_12 (Concatenate) (None, 56, 56, 224) 0 concatenate_11[0][0] dropout_12[0][0] __________________________________________________________________________________________________ batch_normalization_13 (BatchNo (None, 56, 56, 224) 896 concatenate_12[0][0] __________________________________________________________________________________________________ re_lu_13 (ReLU) (None, 56, 56, 224) 0 batch_normalization_13[0][0] __________________________________________________________________________________________________ conv2d_14 (Conv2D) (None, 56, 56, 16) 32272 re_lu_13[0][0] __________________________________________________________________________________________________ dropout_13 (Dropout) (None, 56, 56, 16) 0 conv2d_14[0][0] __________________________________________________________________________________________________ concatenate_13 (Concatenate) (None, 56, 56, 240) 0 concatenate_12[0][0] dropout_13[0][0] __________________________________________________________________________________________________ batch_normalization_14 (BatchNo (None, 56, 56, 240) 960 concatenate_13[0][0] __________________________________________________________________________________________________ re_lu_14 (ReLU) (None, 56, 56, 240) 0 batch_normalization_14[0][0] __________________________________________________________________________________________________ conv2d_15 (Conv2D) (None, 56, 56, 16) 34576 re_lu_14[0][0] __________________________________________________________________________________________________ dropout_14 (Dropout) (None, 56, 56, 16) 0 conv2d_15[0][0] __________________________________________________________________________________________________ concatenate_14 (Concatenate) (None, 56, 56, 256) 0 concatenate_13[0][0] dropout_14[0][0] __________________________________________________________________________________________________ batch_normalization_15 (BatchNo (None, 56, 56, 256) 1024 concatenate_14[0][0] __________________________________________________________________________________________________ re_lu_15 (ReLU) (None, 56, 56, 256) 0 batch_normalization_15[0][0] __________________________________________________________________________________________________ conv2d_16 (Conv2D) (None, 56, 56, 16) 36880 re_lu_15[0][0] __________________________________________________________________________________________________ dropout_15 (Dropout) (None, 56, 56, 16) 0 conv2d_16[0][0] __________________________________________________________________________________________________ concatenate_15 (Concatenate) (None, 56, 56, 272) 0 concatenate_14[0][0] dropout_15[0][0] __________________________________________________________________________________________________ batch_normalization_16 (BatchNo (None, 56, 56, 272) 1088 concatenate_15[0][0] __________________________________________________________________________________________________ re_lu_16 (ReLU) (None, 56, 56, 272) 0 batch_normalization_16[0][0] __________________________________________________________________________________________________ conv2d_17 (Conv2D) (None, 56, 56, 16) 39184 re_lu_16[0][0] __________________________________________________________________________________________________ dropout_16 (Dropout) (None, 56, 56, 16) 0 conv2d_17[0][0] __________________________________________________________________________________________________ concatenate_16 (Concatenate) (None, 56, 56, 288) 0 concatenate_15[0][0] dropout_16[0][0] __________________________________________________________________________________________________ batch_normalization_17 (BatchNo (None, 56, 56, 288) 1152 concatenate_16[0][0] __________________________________________________________________________________________________ re_lu_17 (ReLU) (None, 56, 56, 288) 0 batch_normalization_17[0][0] __________________________________________________________________________________________________ conv2d_18 (Conv2D) (None, 56, 56, 16) 41488 re_lu_17[0][0] __________________________________________________________________________________________________ dropout_17 (Dropout) (None, 56, 56, 16) 0 conv2d_18[0][0] __________________________________________________________________________________________________ concatenate_17 (Concatenate) (None, 56, 56, 112) 0 dropout_17[0][0] dropout_16[0][0] dropout_15[0][0] dropout_14[0][0] dropout_13[0][0] dropout_12[0][0] dropout_11[0][0] __________________________________________________________________________________________________ concatenate_18 (Concatenate) (None, 56, 56, 304) 0 concatenate_17[0][0] max_pooling2d_1[0][0] __________________________________________________________________________________________________ batch_normalization_18 (BatchNo (None, 56, 56, 304) 1216 concatenate_18[0][0] __________________________________________________________________________________________________ re_lu_18 (ReLU) (None, 56, 56, 304) 0 batch_normalization_18[0][0] __________________________________________________________________________________________________ conv2d_19 (Conv2D) (None, 56, 56, 304) 92720 re_lu_18[0][0] __________________________________________________________________________________________________ dropout_18 (Dropout) (None, 56, 56, 304) 0 conv2d_19[0][0] __________________________________________________________________________________________________ max_pooling2d_2 (MaxPooling2D) (None, 28, 28, 304) 0 dropout_18[0][0] __________________________________________________________________________________________________ batch_normalization_19 (BatchNo (None, 28, 28, 304) 1216 max_pooling2d_2[0][0] __________________________________________________________________________________________________ re_lu_19 (ReLU) (None, 28, 28, 304) 0 batch_normalization_19[0][0] __________________________________________________________________________________________________ conv2d_20 (Conv2D) (None, 28, 28, 16) 43792 re_lu_19[0][0] __________________________________________________________________________________________________ dropout_19 (Dropout) (None, 28, 28, 16) 0 conv2d_20[0][0] __________________________________________________________________________________________________ concatenate_19 (Concatenate) (None, 28, 28, 320) 0 max_pooling2d_2[0][0] dropout_19[0][0] __________________________________________________________________________________________________ batch_normalization_20 (BatchNo (None, 28, 28, 320) 1280 concatenate_19[0][0] __________________________________________________________________________________________________ re_lu_20 (ReLU) (None, 28, 28, 320) 0 batch_normalization_20[0][0] __________________________________________________________________________________________________ conv2d_21 (Conv2D) (None, 28, 28, 16) 46096 re_lu_20[0][0] __________________________________________________________________________________________________ dropout_20 (Dropout) (None, 28, 28, 16) 0 conv2d_21[0][0] __________________________________________________________________________________________________ concatenate_20 (Concatenate) (None, 28, 28, 336) 0 concatenate_19[0][0] dropout_20[0][0] __________________________________________________________________________________________________ batch_normalization_21 (BatchNo (None, 28, 28, 336) 1344 concatenate_20[0][0] __________________________________________________________________________________________________ re_lu_21 (ReLU) (None, 28, 28, 336) 0 batch_normalization_21[0][0] __________________________________________________________________________________________________ conv2d_22 (Conv2D) (None, 28, 28, 16) 48400 re_lu_21[0][0] __________________________________________________________________________________________________ dropout_21 (Dropout) (None, 28, 28, 16) 0 conv2d_22[0][0] __________________________________________________________________________________________________ concatenate_21 (Concatenate) (None, 28, 28, 352) 0 concatenate_20[0][0] dropout_21[0][0] __________________________________________________________________________________________________ batch_normalization_22 (BatchNo (None, 28, 28, 352) 1408 concatenate_21[0][0] __________________________________________________________________________________________________ re_lu_22 (ReLU) (None, 28, 28, 352) 0 batch_normalization_22[0][0] __________________________________________________________________________________________________ conv2d_23 (Conv2D) (None, 28, 28, 16) 50704 re_lu_22[0][0] __________________________________________________________________________________________________ dropout_22 (Dropout) (None, 28, 28, 16) 0 conv2d_23[0][0] __________________________________________________________________________________________________ concatenate_22 (Concatenate) (None, 28, 28, 368) 0 concatenate_21[0][0] dropout_22[0][0] __________________________________________________________________________________________________ batch_normalization_23 (BatchNo (None, 28, 28, 368) 1472 concatenate_22[0][0] __________________________________________________________________________________________________ re_lu_23 (ReLU) (None, 28, 28, 368) 0 batch_normalization_23[0][0] __________________________________________________________________________________________________ conv2d_24 (Conv2D) (None, 28, 28, 16) 53008 re_lu_23[0][0] __________________________________________________________________________________________________ dropout_23 (Dropout) (None, 28, 28, 16) 0 conv2d_24[0][0] __________________________________________________________________________________________________ concatenate_23 (Concatenate) (None, 28, 28, 384) 0 concatenate_22[0][0] dropout_23[0][0] __________________________________________________________________________________________________ batch_normalization_24 (BatchNo (None, 28, 28, 384) 1536 concatenate_23[0][0] __________________________________________________________________________________________________ re_lu_24 (ReLU) (None, 28, 28, 384) 0 batch_normalization_24[0][0] __________________________________________________________________________________________________ conv2d_25 (Conv2D) (None, 28, 28, 16) 55312 re_lu_24[0][0] __________________________________________________________________________________________________ dropout_24 (Dropout) (None, 28, 28, 16) 0 conv2d_25[0][0] __________________________________________________________________________________________________ concatenate_24 (Concatenate) (None, 28, 28, 400) 0 concatenate_23[0][0] dropout_24[0][0] __________________________________________________________________________________________________ batch_normalization_25 (BatchNo (None, 28, 28, 400) 1600 concatenate_24[0][0] __________________________________________________________________________________________________ re_lu_25 (ReLU) (None, 28, 28, 400) 0 batch_normalization_25[0][0] __________________________________________________________________________________________________ conv2d_26 (Conv2D) (None, 28, 28, 16) 57616 re_lu_25[0][0] __________________________________________________________________________________________________ dropout_25 (Dropout) (None, 28, 28, 16) 0 conv2d_26[0][0] __________________________________________________________________________________________________ concatenate_25 (Concatenate) (None, 28, 28, 416) 0 concatenate_24[0][0] dropout_25[0][0] __________________________________________________________________________________________________ batch_normalization_26 (BatchNo (None, 28, 28, 416) 1664 concatenate_25[0][0] __________________________________________________________________________________________________ re_lu_26 (ReLU) (None, 28, 28, 416) 0 batch_normalization_26[0][0] __________________________________________________________________________________________________ conv2d_27 (Conv2D) (None, 28, 28, 16) 59920 re_lu_26[0][0] __________________________________________________________________________________________________ dropout_26 (Dropout) (None, 28, 28, 16) 0 conv2d_27[0][0] __________________________________________________________________________________________________ concatenate_26 (Concatenate) (None, 28, 28, 432) 0 concatenate_25[0][0] dropout_26[0][0] __________________________________________________________________________________________________ batch_normalization_27 (BatchNo (None, 28, 28, 432) 1728 concatenate_26[0][0] __________________________________________________________________________________________________ re_lu_27 (ReLU) (None, 28, 28, 432) 0 batch_normalization_27[0][0] __________________________________________________________________________________________________ conv2d_28 (Conv2D) (None, 28, 28, 16) 62224 re_lu_27[0][0] __________________________________________________________________________________________________ dropout_27 (Dropout) (None, 28, 28, 16) 0 conv2d_28[0][0] __________________________________________________________________________________________________ concatenate_27 (Concatenate) (None, 28, 28, 448) 0 concatenate_26[0][0] dropout_27[0][0] __________________________________________________________________________________________________ batch_normalization_28 (BatchNo (None, 28, 28, 448) 1792 concatenate_27[0][0] __________________________________________________________________________________________________ re_lu_28 (ReLU) (None, 28, 28, 448) 0 batch_normalization_28[0][0] __________________________________________________________________________________________________ conv2d_29 (Conv2D) (None, 28, 28, 16) 64528 re_lu_28[0][0] __________________________________________________________________________________________________ dropout_28 (Dropout) (None, 28, 28, 16) 0 conv2d_29[0][0] __________________________________________________________________________________________________ concatenate_28 (Concatenate) (None, 28, 28, 160) 0 dropout_28[0][0] dropout_27[0][0] dropout_26[0][0] dropout_25[0][0] dropout_24[0][0] dropout_23[0][0] dropout_22[0][0] dropout_21[0][0] dropout_20[0][0] dropout_19[0][0] __________________________________________________________________________________________________ concatenate_29 (Concatenate) (None, 28…
_______________ conv2d_transpose_2 (Conv2DTr (None, 32, 32, 128) 524416 _________________________________________________________________ batch_normalization_6 (Batch (None, 32, 32, 128) 512 _________________________________________________________________ re_lu_6 (ReLU) (None, 32, 32, 128) 0 _________________________________________________________________ conv2d_transpose_3 (Conv2DTr (None, 64, 64, 64) 131136 _________________________________________________________________ batch_normalization_7 (Batch (None, 64, 64, 64) 256 _________________________________________________________________ re_lu_7 (ReLU) (None, 64, 64, 64) 0 _________________________________________________________________ conv2d_transpose_4 (Conv2DTr (None, 64, 64, 3) 1731 ================================================================= Total params: 7,223,683 Trainable params: 7,221,763 Non-trainable params: 1,920 _________________________________________________________________ Custom Class 1 2 3 4 5 6 7 8 9 10 11 12 13 14 15 16 17 18 19 20 21 22 23 24 25 26 27 28 29 30 31 32 33 34 35 36 37 38 39 40 41 42 class VAE(keras.Model): def __init__(self, encoder, decod
…
 x = Flatten()(x) x = Dense(1)(x) d_model = keras.models.Model(img_input, x, name=\"discriminator\") return d_model d_model = get_discriminator_model() d_model.summary() Model: \"discriminator\" __________________________________________________________________________________________________ Layer (type) Output Shape Param # Connected to ================================================================================================== input_25 (InputLayer) [(None, 32, 32, 3)] 0 __________________________________________________________________________________________________ re_lu_131 (ReLU) (None, 32, 32, 3) 0 input_25[0][0] __________________________________________________________________________________________________ conv2d_145 (Conv2D) (None, 32, 32, 128) 3456 re_lu_131[0][0] __________________________________________________________________________________________________ re_lu_132 (ReLU) (None, 32, 32, 128) 0 conv2d_145[0][0] __________________________________________________________________________________________________ conv2d_146 (Conv2D) (None, 32, 32, 128) 147456 re_lu_132[0][0] __________________________________________________________________________________________________ conv2d_147 (Conv2D) (None, 32, 32, 128) 512 input_25[0][0] __________________________________________________________________________________________________ average_pooling2d_52 (AveragePo (None, 16, 16, 128) 0 conv2d_146[0][0] __________________________________________________________________________________________________ average_pooling2d_53 (AveragePo (None, 16, 16, 128) 0 conv2d_147[0][0] __________________________________________________________________________________________________ add_46 (Add) (None, 16, 16, 128) 0 average_pooling2d_52[0][0] average_pooling2d_53[0][0] __________________________________________________________________________________________________ re_lu_133 (ReLU) (None, 16, 16, 128) 0 add_46[0][0] __________________________________________________________________________________________________ conv2d_148 (Conv2D) (None, 16, 16, 128) 147456 re_lu_133[0][0] __________________________________________________________________________________________________ re_lu_134 (ReLU) (None, 16, 16, 128) 0 conv2d_148[0][0] __________________________________________________________________________________________________ conv2d_149 (Conv2D) (None, 16, 16, 128) 147456 re_lu_134[0][0] __________________________________________________________________________________________________ conv2d_150 (Conv2D) (None, 16, 16, 128) 16512 add_46[0][0] __________________________________________________________________________________________________ average_pooling2d_54 (AveragePo (None, 8, 8, 128) 0 conv2d_149[0][0] __________________________________________________________________________________________________ average_pooling2d_55 (AveragePo (None, 8, 8, 128) 0 conv2d_150[0][0] __________________________________________________________________________________________________ add_47 (Add) (None, 8, 8, 128) 0 average_pooling2d_54[0][0] average_pooling2d_55[0][0] __________________________________________________________________________________________________ re_lu_135 (ReLU) (None, 8, 8, 128) 0 add_47[0][0] __________________________________________________________________________________________________ conv2d_151 (Conv2D) (None, 8, 8, 128) 147456 re_lu_135[0][0] __________________________________________________________________________________________________ re_lu_136 (ReLU) (None, 8, 8, 128) 0 conv2d_151[0][0] __________________________________________________________________________________________________ conv2d_152 (Conv2D) (None, 8, 8, 128) 147456 re_lu_136[0][0] __________________________________________________________________________________________________ add_48 (Add) (None, 8, 8, 128) 0 conv2d_152[0][0] add_47[0][0] __________________________________________________________________________________________________ re_lu_137 (ReLU) (None, 8, 8, 128) 0 add_48[0][0] __________________________________________________________________________________________________ conv2d_153 (Conv2D) (None, 8, 8, 128) 147456 re_lu_137[0][0] __________________________________________________________________________________________________ re_lu_138 (ReLU) (None, 8, 8, 128) 0 conv2d_153[0][0] __________________________________________________________________________________________________ conv2d_154 (Conv2D) (None, 8, 8, 128) 147456 re_lu_138[0][0] __________________________________________________________________________________________________ add_49 (Add) (None, 8, 8, 128) 0 conv2d_154[0][0] add_48[0][0] __________________________________________________________________________________________________ re_lu_139 (ReLU) (None, 8, 8, 128) 0 add_49[0][0] __________________________________________________________________________________________________ average_pooling2d_56 (AveragePo (None, 4, 4, 128) 0 re_lu_139[0][0] __________________________________________________________________________________________________ flatten_3 (Flatten) (None, 2048) 0 average_pooling2d_56[0][0] __________________________________________________________________________________________________ dense_7 (Dense) (None, 1) 2049 flatten_3[0][0] ================================================================================================== Total params: 1,054,721 Trainable params: 1,054,721 Non-trainable params: 0 __________________________________________________________________________________________________ G\u00e9n\u00e9rateur 1 2 3 4 5 6 7 8 9 10 11 12 13 14 15 16 17 18 19 20 21 22 23 24 25 26 27 28 29 30 31 32 3
…
_initializer='he_uniform')(x) x = Activation('tanh')(x) g_model = keras.models.Model(noise, x, name=\"generator\") return g_model g_model = get_generator_model() g_model.summary() Model: \"generator\" __________________________________________________________________________________________________ Layer (type) Output Shape Param # Connected to ================================================================================================== input_29 (InputLayer) [(None, 128)] 0 __________________________________________________________________________________________________ dense_11 (Dense) (None, 2048) 262144 input_29[0][0] __________________________________________________________________________________________________ reshape_6 (Reshape) (None, 4, 4, 128) 0 dense_11[0][0] __________________________________________________________________________________________________ batch_normalization_51 (BatchNo (None, 4, 4, 128) 512 reshape_6[0][0] __________________________________________________________________________________________________ re_lu_154 (ReLU) (None, 4, 4, 128) 0 batch_normalization_51[0][0] __________________________________________________________________________________________________ conv2d_177 (Conv2D) (None, 4, 4, 128) 147456 re_lu_154[0][0] __________________________________________________________________________________________________ up_sampling2d_18 (UpSampling2D) (None, 8, 8, 128) 0 conv2d_177[0][0] __________________________________________________________________________________________________ batch_normalization_52 (BatchNo (None, 8, 8, 128) 512 up_sampling2d_18[0][0] __________________________________________________________________________________________________ re_lu_155 (ReLU) (None, 8, 8, 128) 0 batch_normalization_52[0][0] __________________________________________________________________________________________________ up_sampling2d_19 (UpSampling2D) (None, 8, 8, 128) 0 reshape_6[0][0] __________________________________________________________________________________________________ conv2d_178 (Conv2D) (None, 8, 8, 128) 147456 re_lu_155[0][0] __________________________________________________________________________________________________ conv2d_179 (Conv2D) (None, 8, 8, 128) 16512 up_sampling2d_19[0][0] __________________________________________________________________________________________________ add_57 (Add) (None, 8, 8, 128) 0 conv2d_178[0][0] conv2d_179[0][0] __________________________________________________________________________________________________ batch_normalization_53 (BatchNo (None, 8, 8, 128) 512 add_57[0][0] __________________________________________________________________________________________________ re_lu_156 (ReLU) (None, 8, 8, 128) 0 batch_normalization_53[0][0] __________________________________________________________________________________________________ conv2d_180 (Conv2D) (None, 8, 8, 128) 147456 re_lu_156[0][0] __________________________________________________________________________________________________ up_sampling2d_20 (UpSampling2D) (None, 16, 16, 128) 0 conv2d_180[0][0] __________________________________________________________________________________________________ batch_normalization_54 (BatchNo (None, 16, 16, 128) 512 up_sampling2d_20[0][0] __________________________________________________________________________________________________ re_lu_157 (ReLU) (None, 16, 16, 128) 0 batch_normalization_54[0][0] __________________________________________________________________________________________________ up_sampling2d_21 (UpSampling2D) (None, 16, 16, 128) 0 add_57[0][0] __________________________________________________________________________________________________ conv2d_181 (Conv2D) (None, 16, 16, 128) 147456 re_lu_157[0][0] __________________________________________________________________________________________________ conv2d_182 (Conv2D) (None, 16, 16, 128) 16512 up_sampling2d_21[0][0] __________________________________________________________________________________________________ add_58 (Add) (None, 16, 16, 128) 0 conv2d_181[0][0] conv2d_182[0][0] __________________________________________________________________________________________________ batch_normalization_55 (BatchNo (None, 16, 16, 128) 512 add_58[0][0] __________________________________________________________________________________________________ re_lu_158 (ReLU) (None, 16, 16, 128) 0 batch_normalization_55[0][0] __________________________________________________________________________________________________ conv2d_183 (Conv2D) (None, 16, 16, 128) 147456 re_lu_158[0][0] __________________________________________________________________________________________________ up_sampling2d_22 (UpSampling2D) (None, 32, 32, 128) 0 conv2d_183[0][0] __________________________________________________________________________________________________ batch_normalization_56 (BatchNo (None, 32, 32, 128) 512 up_sampling2d_22[0][0] __________________________________________________________________________________________________ re_lu_159 (ReLU) (None, 32, 32, 128) 0 batch_normalization_56[0][0] __________________________________________________________________________________________________ up_sampling2d_23 (UpSampling2D) (None, 32, 32, 128) 0 add_58[0][0] __________________________________________________________________________________________________ conv2d_184 (Conv2D) (None, 32, 32, 128) 147456 re_lu_159[0][0] __________________________________________________________________________________________________ conv2d_185 (Conv2D) (None, 32, 32, 128) 16512 up_sampling2d_23[0][0] __________________________________________________________________________________________________ add_59 (Add) (None, 32, 32, 128) 0 conv2d_184[0][0] conv2d_185[0][0] __________________________________________________________________________________________________ conv2d_186 (Conv2D) (None, 32, 32, 3) 3459 add_59[0][0] __________________________________________________________________________________________________ activation (Activation) (None, 32, 32, 3) 0 conv2d_186[0][0] ================================================================================================== Total params: 1,202,947 Trainable params: 1,201,411 Non-trainable params: 1,536 __________________________________________________________________________________________________ Custom Class 1 2 3 4 5 6 7 8 9 10 11 12 13 14 15 16 17 18 19 20 21 22 23 24 25 26 27 28 29 30 31 32 33 3
…
es 4.0K base_model/flower_model_no_op/assets 71M base_model/flower_model_no_op Charger un mod\u00e8le se fait de la m\u00eame fa\u00e7on, que l'on utilise le format SavedModel ou .h5 . 1 2 3 4 flower_model = tf.keras.models.load_model('base_model/flower_model_no_op') # Check its architecture flower_model.summary() Model: \"model\" __________________________________________________________________________________________________ Layer (type) Output Shape Param # Connected to ================================================================================================== input_1 (InputLayer) [(None, 224, 224, 3) 0 __________________________________________________________________________________________________ Conv1_pad (ZeroPadding2D) (None, 225, 225, 3) 0 input_1[0][0] __________________________________________________________________________________________________ Conv1 (Conv2D) (None, 112, 112, 32) 864 Conv1_pad[0][0] __________________________________________________________________________________________________ bn_Conv1 (BatchNormalization) (None, 112, 112, 32) 128 Conv1[0][0] __________________________________________________________________________________________________ Conv1_relu (ReLU) (None, 112, 112, 32) 0 bn_Conv1[0][0] __________________________________________________________________________________________________ expanded_conv_depthwise (Depthw (None, 112, 112, 32) 288 Conv1_relu[0][0] __________________________________________________________________________________________________ expanded_conv_depthwise_BN (Bat (None, 112, 112, 32) 128 expanded_conv_depthwise[0][0] __________________________________________________________________________________________________ expanded_conv_depthwise_relu (R (None, 112, 112, 32) 0 expanded_conv_depthwise_BN[0][0] __________________________________________________________________________________________________ expanded_conv_project (Conv2D) (None, 112, 112, 16) 512 expanded_conv_depthwise_relu[0][0 __________________________________________________________________________________________________ expanded_conv_project_BN (Batch (None, 112, 112, 16) 64 expanded_conv_project[0][0] __________________________________________________________________________________________________ block_1_expand (Conv2D) (None, 112, 112, 96) 1536 expanded_conv_project_BN[0][0] __________________________________________________________________________________________________ block_1_expand_BN (BatchNormali (None, 112, 112, 96) 384 block_1_expand[0][0] __________________________________________________________________________________________________ block_1_expand_relu (ReLU) (None, 112, 112, 96) 0 block_1_expand_BN[0][0] __________________________________________________________________________________________________ block_1_pad (ZeroPadding2D) (None, 113, 113, 96) 0 block_1_expand_relu[0][0] __________________________________________________________________________________________________ block_1_depthwise (DepthwiseCon (None, 56, 56, 96) 864 block_1_pad[0][0] __________________________________________________________________________________________________ block_1_depthwise_BN (BatchNorm (None, 56, 56, 96) 384 block_1_depthwise[0][0] __________________________________________________________________________________________________ block_1_depthwise_relu (ReLU) (None, 56, 56, 96) 0 block_1_depthwise_BN[0][0] __________________________________________________________________________________________________ block_1_project (Conv2D) (None, 56, 56, 24) 2304 block_1_depthwise_relu[0][0] __________________________________________________________________________________________________ block_1_project_BN (BatchNormal (None, 56, 56, 24) 96 block_1_project[0][0] __________________________________________________________________________________________________ block_2_expand (Conv2D) (None, 56, 56, 144) 3456 block_1_project_BN[0][0] __________________________________________________________________________________________________ block_2_expand_BN (BatchNormali (None, 56, 56, 144) 576 block_2_expand[0][0] __________________________________________________________________________________________________ block_2_expand_relu (ReLU) (None, 56, 56, 144) 0 block_2_expand_BN[0][0] __________________________________________________________________________________________________ block_2_depthwise (DepthwiseCon (None, 56, 56, 144) 1296 block_2_expand_relu[0][0] __________________________________________________________________________________________________ block_2_depthwise_BN (BatchNorm (None, 56, 56, 144) 576 block_2_depthwise[0][0] __________________________________________________________________________________________________ block_2_depthwise_relu (ReLU) (None, 56, 56, 144) 0 block_2_depthwise_BN[0][0] __________________________________________________________________________________________________ block_2_project (Conv2D) (None, 56, 56, 24) 3456 block_2_depthwise_relu[0][0] __________________________________________________________________________________________________ block_2_project_BN (BatchNormal (None, 56, 56, 24) 96 block_2_project[0][0] __________________________________________________________________________________________________ block_2_add (Add) (None, 56, 56, 24) 0 block_1_project_BN[0][0] block_2_project_BN[0][0] __________________________________________________________________________________________________ block_3_expand (Conv2D) (None, 56, 56, 144) 3456 block_2_add[0][0] __________________________________________________________________________________________________ block_3_expand_BN (BatchNormali (None, 56, 56, 144) 576 block_3_expand[0][0] __________________________________________________________________________________________________ block_3_expand_relu (ReLU) (None, 56, 56, 144) 0 block_3_expand_BN[0][0] __________________________________________________________________________________________________ block_3_pad (ZeroPadding2D) (None, 57, 57, 144) 0 block_3_expand_relu[0][0] __________________________________________________________________________________________________ block_3_depthwise (DepthwiseCon (None, 28, 28, 144) 1296 block_3_pad[0][0] __________________________________________________________________________________________________ block_3_depthwise_BN (BatchNorm (None, 28, 28, 144) 576 block_3_depthwise[0][0] __________________________________________________________________________________________________ block_3_depthwise_relu (ReLU) (None, 28, 28, 144) 0 block_3_depthwise_BN[0][0] __________________________________________________________________________________________________ block_3_project (Conv2D) (None, 28, 28, 32) 4608 block_3_depthwise_relu[0][0] __________________________________________________________________________________________________ block_3_project_BN (BatchNormal (None, 28, 28, 32) 128 block_3_project[0][0] __________________________________________________________________________________________________ block_4_expand (Conv2D) (None, 28, 28, 192) 6144 block_3_project_BN[0][0] __________________________________________________________________________________________________ block_4_expand_BN (BatchNormali (None, 28, 28, 192) 768 block_4_expand[0][0] __________________________________________________________________________________________________ block_4_expand_relu (ReLU) (None, 28, 28, 192) 0 block_4_expand_BN[0][0] __________________________________________________________________________________________________ block_4_depthwise (DepthwiseCon (None, 28, 28, 192) 1728 block_4_expand_relu[0][0] __________________________________________________________________________________________________ block_4_depthwise_BN (BatchNorm (None, 28, 28, 192) 768 block_4_depthwise[0][0] __________________________________________________________________________________________________ block_4_depthwise_relu (ReLU) (None, 28, 28, 192) 0 block_4_depthwise_BN[0][0] __________________________________________________________________________________________________ block_4_project (Conv2D) (None, 28, 28, 32) 6144 block_4_depthwise_relu[0][0] __________________________________________________________________________________________________ block_4_project_BN (BatchNormal (None, 28, 28, 32) 128 block_4_project[0][0] __________________________________________________________________________________________________ block_4_add (Add) (None, 28, 28, 32) 0 block_3_project_BN[0][0] block_4_project_BN[0][0] __________________________________________________________________________________________________ block_5_expand (Conv2D) (None, 28, 28, 192) 6144 block_4_add[0][0] __________________________________________________________________________________________________ block_5_expand_BN (BatchNormali (None, 28, 28, 192) 768 block_5_expand[0][0] __________________________________________________________________________________________________ block_5_expand_relu (ReLU) (None, 28, 28, 192) 0 block_5_expand_BN[0][0] __________________________________________________________________________________________________ block_5_depthwise (DepthwiseCon (None, 28, 28, 192) 1728 block_5_expand_relu[0][0] __________________________________________________________________________________________________ block_5_depthwise_BN (BatchNorm (None, 28, 28, 192) 768 block_5_depthwise[0][0] __________________________________________________________________________________________________ block_5_depthwise_relu (ReLU) (None, 28, 28, 192) 0 block_5_depthwise_BN[0][0] __________________________________________________________________________________________________ block_5_project (Conv2D) (None, 28, 28, 32) 6144 block_5_depthwise_relu[0][0] __________________________________________________________________________________________________ block_5_project_BN (BatchNormal (None, 28, 28, 32) 128 block_5_project[0][0] __________________________________________________________________________________________________ block_5_add (Add) (None, 28, 28, 32) 0 block_4_add[0][0] block_5_project_BN[0][0] __________________________________________________________________________________________________ block_6_expand (Conv2D) (None, 28, 28, 192) 6144 block_5_add[0][0] __________________________________________________________________________________________________ block_6_expand_BN (BatchNormali (None, 28, 28, 192) 768 block_6_expand[0][0] __________________________________________________________________________________________________ block_6_expand_relu (ReLU) (None, 28, 28, 192) 0 block_6_expand_BN[0][0] __________________________________________________________________________________________________ block_6_pad (ZeroPadding2D) (None, 29, 29, 192) 0 block_6_expand_relu[0][0] __________________________________________________________________________________________________ block_6_depthwise (DepthwiseCon (None, 14, 14, 192) 1728 block_6_pad[0][0] __________________________________________________________________________________________________ block_6_depthwise_BN (BatchNorm (None, 14, 14, 192) 768 block_6_depthwise[0][0] __________________________________________________________________________________________________ block_6_depthwise_relu (ReLU) (None, 14, 14, 192) 0 block_6_depthwise_BN[0][0] __________________________________________________________________________________________________ block_6_project (Conv2D) (None, 14, 14, 64) 12288 block_6_depthwise_relu[0][0] __________________________________________________________________________________________________ block_6_project_BN (BatchNormal (None, 14, 14, 64) 256 block_6_project[0][0] __________________________________________________________________________________________________ block_7_expand (Conv2D) (None, 14, 14, 384) 24576 block_6_project_BN[0][0] __________________________________________________________________________________________________ block_7_expand_BN (BatchNormali (None, 14, 14, 384) 1536 block_7_expand[0][0] __________________________________________________________________________________________________ block_7_expand_relu (ReLU) (None, 14, 14, 384) 0 block_7_expand_BN[0][0] __________________________________________________________________________________________________ block_7_depthwise (DepthwiseCon (None, 14, 14, 384) 3456 block_7_expand_relu[0][0] __________________________________________________________________________________________________ block_7_depthwise_BN (BatchNorm (None, 14, 14, 384) 1536 block_7_depthwise[0][0] __________________________________________________________________________________________________ block_7_depthwise_relu (ReLU) (None, 14, 14, 384) 0 block_7_depthwise_BN[0][0] __________________________________________________________________________________________________ block_7_project (Conv2D) (None, 14, 14, 64) 24576 block_7_depthwise_relu[0][0] __________________________________________________________________________________________________ block_7_project_BN (BatchNormal (None, 14, 14, 64) 256 block_7_project[0][0] __________________________________________________________________________________________________ block_7_add (Add) (None, 14, 14, 64) 0 block_6_project_BN[0][0] block_7_project_BN[0][0] __________________________________________________________________________________________________ block_8_expand (Conv2D) (None, 14, 14, 384) 24576 block_7_add[0][0] __________________________________________________________________________________________________ block_8_expand_BN (BatchNormali (None, 14, 14, 384) 1536 block_8_expand[0][0] __________________________________________________________________________________________________ block_8_expand_relu (ReLU) (None, 14, 14, 384) 0 block_8_expand_BN[0][0] __________________________________________________________________________________________________ block_8_depthwise (DepthwiseCon (None, 14, 14, 384) 3456 block_8_expand_relu[0][0] __________________________________________________________________________________________________ block_8_depthwise_BN (BatchNorm (None, 14, 14, 384) 1536 block_8_depthwise[0][0] __________________________________________________________________________________________________ block_8_depthwise_relu (ReLU) (None, 14, 14, 384) 0 block_8_depthwise_BN[0][0] __________________________________________________________________________________________________ block_8_project (Conv2D) (None, 14, 14, 64) 24576 block_8_depthwise_relu[0][0] __________________________________________________________________________________________________ block_8_project_BN (BatchNormal (None, 14, 14, 64) 256 block_8_project[0][0] __________________________________________________________________________________________________ block_8_add (Add) (None, 14, 14, 64) 0 block_7_add[0][0] block_8_project_BN[0][0] __________________________________________________________________________________________________ block_9_expand (Conv2D) (None, 14, 14, 384) 24576 block_8_add[0][0] __________________________________________________________________________________________________ block_9_expand_BN (BatchNormali (None, 14, 14, 384) 1536 block_9_expand[0][0] __________________________________________________________________________________________________ block_9_expand_relu (ReLU) (None, 14, 14, 384) 0 block_9_expand_BN[0][0] __________________________________________________________________________________________________ block_9_depthwise (DepthwiseCon (None, 14, 14, 384) 3456 block_9_expand_relu[0][0] __________________________________________________________________________________________________ block_9_depthwise_BN (BatchNorm (None, 14, 14, 384) 1536 block_9_depthwise[0][0] __________________________________________________________________________________________________ block_9_depthwise_relu (ReLU) (None, 14, 14, 384) 0 block_9_depthwise_BN[0][0] __________________________________________________________________________________________________ block_9_project (Conv2D) (None, 14, 14, 64) 24576 block_9_depthwise_relu[0][0] __________________________________________________________________________________________________ block_9_project_BN (BatchNormal (None, 14, 14, 64) 256 block_9_project[0][0] __________________________________________________________________________________________________ block_9_add (Add) (None, 14, 14, 64) 0 block_8_add[0][0] block_9_project_BN[0][0] __________________________________________________________________________________________________ block_10_expand (Conv2D) (None, 14, 14, 384) 24576 block_9_add[0][0] __________________________________________________________________________________________________ block_10_expand_BN (BatchNormal (None, 14, 14, 384) 1536 block_10_expand[0][0] __________________________________________________________________________________________________ block_10_expand_relu (ReLU) (None, 14, 14, 384) 0 block_10_expand_BN[0][0] __________________________________________________________________________________________________ block_10_depthwise (DepthwiseCo (None, 14, 14, 384) 3456 block_10_expand_relu[0][0] __________________________________________________________________________________________________ block_10_depthwise_BN (BatchNor (None, 14, 14, 384) 1536 block_10_depthwise[0][0] __________________________________________________________________________________________________ block_10_depthwise_relu (ReLU) (None, 14, 14, 384) 0 block_10_depthwise_BN[0][0] __________________________________________________________________________________________________ block_10_project (Conv2D) (None, 14, 14, 96) 36864 block_10_depthwise_relu[0][0] __________________________________________________________________________________________________ block_10_project_BN (BatchNorma (None, 14, 14, 96) 384 block_10_project[0][0] __________________________________________________________________________________________________ block_11_expand (Conv2D) (None, 14, 14, 576) 55296 block_10_project_BN[0][0] __________________________________________________________________________________________________ block_11_expand_BN (BatchNormal (None, 14, 14, 576) 2304 block_11_expand[0][0] __________________________________________________________________________________________________ block_11_expand_relu (ReLU) (None, 14, 14, 576) 0 block_11_expand_BN[0][0] __________________________________________________________________________________________________ block_11_depthwise (DepthwiseCo (None, 14, 14, 576) 5184 block_11_expand_relu[0][0] __________________________________________________________________________________________________ block_11_depthwise_BN (BatchNor (None, 14, 14, 576) 2304 block_11_depthwise[0][0] __________________________________________________________________________________________________ block_11_depthwise_relu (ReLU) (None, 14, 14, 576) 0 block_11_depthwise_BN[0][0] __________________________________________________________________________________________________ block_11_project (Conv2D) (None, 14, 14, 96) 55296 block_11_depthwise_relu[0][0] __________________________________________________________________________________________________ block_11_project_BN (BatchNorma (None, 14, 14, 96) 384 block_11_project[0][0] __________________________________________________________________________________________________ block_11_add (Add) (None, 14, 14, 96) 0 block_10_project_BN[0][0] block_11_project_BN[0][0] __________________________________________________________________________________________________ block_12_expand (Conv2D) (None, 14, 14, 576) 55296 block_11_add[0][0] __________________________________________________________________________________________________ block_12_expand_BN (BatchNormal (None, 14, 14, 576) 2304 block_12_expand[0][0] __________________________________________________________________________________________________ block_12_expand_relu (ReLU) (None, 14, 14, 576) 0 block_12_expand_BN[0][0] __________________________________________________________________________________________________ block_12_depthwise (DepthwiseCo (None, 14, 14, 576) 5184 block_12_expand_relu[0][0] __________________________________________________________________________________________________ block_12_depthwise_BN (BatchNor (None, 14, 14, 576) 2304 block_12_depthwise[0][0] __________________________________________________________________________________________________ block_12_depthwise_relu (ReLU) (None, 14, 14, 576) 0 block_12_depthwise_BN[0][0] __________________________________________________________________________________________________ block_12_project (Conv2D) (None, 14, 14, 96) 55296 block_12_depthwise_relu[0][0] __________________________________________________________________________________________________ block_12_project_BN (BatchNorma (None, 14, 14, 96) 384 block_12_project[0][0] __________________________________________________________________________________________________ block_12_add (Add) (None, 14, 14, 96) 0 block_11_add[0][0] block_12_project_BN[0][0] __________________________________________________________________________________________________ block_13_expand (Conv2D) (None, 14, 14, 576) 55296 block_12_add[0][0] __________________________________________________________________________________________________ block_13_expand_BN (BatchNormal (None, 14, 14, 576) 2304 block_13_expand[0][0] __________________________________________________________________________________________________ block_13_expand_relu (ReLU) (None, 14, 14, 576) 0 block_13_expand_BN[0][0] __________________________________________________________________________________________________ block_13_pad (ZeroPadding2D) (None, 15, 15, 576) 0 block_13_expand_relu[0][0] __________________________________________________________________________________________________ block_13_depthwise (DepthwiseCo (None, 7, 7, 576) 5184 block_13_pad[0][0] __________________________________________________________________________________________________ block_13_depthwise_BN (BatchNor (None, 7, 7, 576) 2304 block_13_depthwise[0][0] __________________________________________________________________________________________________ block_13_depthwise_relu (ReLU) (None, 7, 7, 576) 0 block_13_depthwise_BN[0][0] __________________________________________________________________________________________________ block_13_project (Conv2D) (None, 7, 7, 160) 92160 block_13_depthwise_relu[0][0] __________________________________________________________________________________________________ block_13_project_BN (BatchNorma (None, 7, 7, 160) 640 block_13_project[0][0] __________________________________________________________________________________________________ block_14_expand (Conv2D) (None, 7, 7, 960) 153600 block_13_project_BN[0][0] __________________________________________________________________________________________________ block_14_expand_BN (BatchNormal (None, 7, 7, 960) 3840 block_14_expand[0][0] __________________________________________________________________________________________________ block_14_expand_relu (ReLU) (None, 7, 7, 960) 0 block_14_expand_BN[0][0] __________________________________________________________________________________________________ block_14_depthwise (DepthwiseCo (None, 7, 7, 960) 8640 block_14_expand_relu[0][0] __________________________________________________________________________________________________ block_14_depthwise_BN (BatchNor (None, 7, 7, 960) 3840 block_14_depthwise[0][0] __________________________________________________________________________________________________ block_14_depthwise_relu (ReLU) (None, 7, 7, 960) 0 block_14_depthwise_BN[0][0] __________________________________________________________________________________________________ block_14_project (Conv2D) (None, 7, 7, 160) 153600 block_14_depthwise_relu[0][0] __________________________________________________________________________________________________ block_14_project_BN (BatchNorma (None, 7, 7, 160) 640 block_14_project[0][0] __________________________________________________________________________________________________ block_14_add (Add) (None, 7, 7, 160) 0 block_13_project_BN[0][0] block_14_project_BN[0][0] __________________________________________________________________________________________________ block_15_expand (Conv2D) (None, 7, 7, 960) 153600 block_14_add[0][0] __________________________________________________________________________________________________ block_15_expand_BN (BatchNormal (None, 7, 7, 960) 3840 block_15_expand[0][0] __________________________________________________________________________________________________ block_15_expand_relu (ReLU) (None, 7, 7, 960) 0 block_15_expand_BN[0][0] __________________________________________________________________________________________________ block_15_depthwise (DepthwiseCo (None, 7, 7, 960) 8640 block_15_expand_relu[0][0] __________________________________________________________________________________________________ block_15_depthwise_BN (BatchNor (None, 7, 7, 960) 3840 block_15_depthwise[0][0] __________________________________________________________________________________________________ block_15_depthwise_relu (ReLU) (None, 7, 7, 960) 0 block_15_depthwise_BN[0][0] __________________________________________________________________________________________________ block_15_project (Conv2D) (None, 7, 7, 160) 153600 block_15_depthwise_relu[0][0] __________________________________________________________________________________________________ block_15_project_BN (BatchNorma (None, 7, 7, 160) 640 block_15_project[0][0] __________________________________________________________________________________________________ block_15_add (Add) (None, 7, 7, 160) 0 block_14_add[0][0] block_15_project_BN[0][0] __________________________________________________________________________________________________ block_16_expand (Conv2D) (None, 7, 7, 960) 153600 block_15_add[0][0] __________________________________________________________________________________________________ block_16_expand_BN (BatchNormal (None, 7, 7, 960) 3840 block_16_expand[0][0] __________________________________________________________________________________________________ block_16_expand_relu (ReLU) (None, 7, 7, 960) 0 block_16_expand_BN[0][0] __________________________________________________________________________________________________ block_16_depthwise (DepthwiseCo (None, 7, 7, 960) 8640 block_16_expand_relu[0][0] __________________________________________________________________________________________________ block_16_depthwise_BN (BatchNor (None, 7, 7, 960) 3840 block_16_depthwise[0][0] __________________________________________________________________________________________________ block_16_depthwise_relu (ReLU) (None, 7, 7, 960) 0 block_16_depthwise_BN[0][0] __________________________________________________________________________________________________ block_16_project (Conv2D) (None, 7, 7, 320) 307200 block_16_depthwise_relu[0][0] __________________________________________________________________________________________________ block_16_project_BN (BatchNorma (None, 7, 7, 320) 1280 block_16_project[0][0] __________________________________________________________________________________________________ Conv_1 (Conv2D) (None, 7, 7, 1280) 409600 block_16_project_BN[0][0] __________________________________________________________________________________________________ Conv_1_bn (BatchNormalization) (None, 7, 7, 1280) 5120 Conv_1[0][0] __________________________________________________________________________________________________ out_relu (ReLU) (None, 7, 7, 1280) 0 Conv_1_bn[0][0] __________________________________________________________________________________________________ global_average_pooling2d (Globa (None, 1280) 0 out_relu[0][0] __________________________________________________________________________________________________ dense (Dense) (None, 512) 655872 global_average_pooling2d[0][0] __________________________________________________________________________________________________ dropout (Dropout) (None, 512) 0 dense[0][0] __________________________________________________________________________________________________ dense_1 (Dense) (None, 5) 2565 dropout[0][0] ================================================================================================== Total params: 2,916,421 Trainable params: 2,882,309 Non-trainable params: 34,112 __________________________________________________________________________________________________ TensorRT https://github.com/tensorflow/tensorrt/blob/master/tftrt/examples/image-classification/Colab-TF-T
…
10 , name = 'dense' )( x ) x = Softmax ()( x ) model = Model ( input , x ) return model 1 2 training_model = get_model ([ 32 , 32 , 3 ]) training_model . summary () Model: \"model_11\" __________________________________________________________________________________________________ Layer (type) Output Shape Param # Connected to ================================================================================================== input_14 (InputLayer) [(None, 32, 32, 3)] 0 __________________________________________________________________________________________________ block_0_conv_main (Conv2D) (None, 16, 16, 64) 1728 input_14[0][0] __________________________________________________________________________________________________ block_0_conv_alt (Conv2D) (None, 16, 16, 64) 192 input_14[0][0] __________________________________________________________________________________________________ block_0_bn_main (BatchNormaliza (None, 16, 16, 64) 256 block_0_conv_main[0][0] __________________________________________________________________________________________________ block_0_bn_alt (BatchNormalizat (None, 16, 16, 64) 256 block_0_conv_alt[0][0] __________________________________________________________________________________________________ add_13 (Add) (None, 16, 16, 64) 0 block_0_bn_main[0][0] block_0_bn_alt[0][0] __________________________________________________________________________________________________ re_lu_20 (ReLU) (None, 16, 16, 64) 0 add_13[0][0] __________________________________________________________________________________________________ block_1_conv_main (Conv2D) (None, 8, 8, 64) 36864 re_lu_20[0][0] __________________________________________________________________________________________________ block_1_conv_alt (Conv2D) (None, 8, 8, 64) 4096 re_lu_20[0][0] __________________________________________________________________________________________________ block_1_bn_main (BatchNormaliza (None, 8, 8, 64) 256 block_1_conv_main[0][0] __________________________________________________________________________________________________ block_1_bn_alt (BatchNormalizat (None, 8, 8, 64) 256 block_1_conv_alt[0][0] __________________________________________________________________________________________________ add_14 (Add) (None, 8, 8, 64) 0 block_1_bn_main[0][0] block_1_bn_alt[0][0] __________________________________________________________________________________________________ re_lu_21 (ReLU) (None, 8, 8, 64) 0 add_14[0][0] __________________________________________________________________________________________________ block_2_conv_main (Conv2D) (None, 8, 8, 64) 36864 re_lu_21[0][0] __________________________________________________________________________________________________ block_2_conv_alt (Conv2D) (None, 8, 8, 64) 4096 re_lu_21[0][0] __________________________________________________________________________________________________ block_2_bn_main (BatchNormaliza (None, 8, 8, 64) 256 block_2_conv_main[0][0] __________________________________________________________________________________________________ block_2_bn_alt (BatchNormalizat (None, 8, 8, 64) 256 block_2_conv_alt[0][0] __________________________________________________________________________________________________ block_2_bn_id (BatchNormalizati (None, 8, 8, 64) 256 re_lu_21[0][0] __________________________________________________________________________________________________ add_15 (Add) (None, 8, 8, 64) 0 block_2_bn_main[0][0] block_2_bn_alt[0][0] block_2_bn_id[0][0] __________________________________________________________________________________________________ re_lu_22 (ReLU) (None, 8, 8, 64) 0 add_15[0][0] __________________________________________________________________________________________________ flatten_6 (Flatten) (None, 4096) 0 re_lu_22[0][0] __________________________________________________________________________________________________ dense (Dense) (None, 10) 40970 flatten_6[0][0] __________________________________________________________________________________________________ softmax_6 (Softmax) (None, 10) 0 dense[0][0] ================================================================================================== Total params: 126,602 Trainable params: 125,706 Non-trainable params: 896 __________________________________________________________________________________________________ 1 2 inference_model = get_inference_model ([ 32 , 32 , 3 ]) inference_model . summary () Model: \"model_12\" _________________________________________________________________ Layer (type) Output Shape Param # ================================================================= input_15 (InputLayer) [(None, 32, 32, 3)] 0 _________________________________________________________________ conv_0 (Conv2D) (None, 16, 16, 64) 1792 _________________________________________________________________ re_lu_23 (ReLU) (None, 16, 16, 64) 0 _________________________________________________________________ conv_1 (Conv2D) (None, 8, 8, 64) 36928 _________________________________________________________________ re_lu_24 (ReLU) (None, 8, 8, 64) 0 _________________________________________________________________ conv_2 (Conv2D) (None, 8, 8, 64) 36928 _________________________________________________________________ re_lu_25 (ReLU) (None, 8, 8, 64) 0 _________________________________________________________________ flatten_7 (Flatten) (None, 4096) 0 _________________________________________________________________ dense (Dense) (None, 10) 40970 _________________________________________________________________ softmax_7 (Softmax) (None, 10) 0 ================================================================= Total params: 116,618 Trainable params: 116,618 Non-trainable params: 0 _________________________________________________________________ 1 2 3 4 5 6 7 8 9 10 11 12 13 14 15 16 17 18 19 20 21 22 23 24 25 26 27 28 29 30 31 32 33 34 35 36 37 38 39 40 41 42 43 def from_repvgg_to_vgg ( training_model , inference_model , depth ): model 
…
nference model at depth 0 Fusion Conv-BN from main branch at depth 1 Fusion Conv-BN from alt branch at depth 1 Setting weights on inference model at depth 1 Fusion Conv-BN from main branch at depth 2 Fusion Conv-BN from alt branch at depth 2 Setting weights on inference model at depth 2 Model: \"model_12\" _________________________________________________________________ Layer (type) Output Shape Param # ================================================================= input_15 (InputLayer) [(None, 32, 32, 3)] 0 _________________________________________________________________ conv_0 (Conv2D) (None, 16, 16, 64) 1792 _________________________________________________________________ re_lu_23 (ReLU) (None, 16, 16, 64) 0 _________________________________________________________________ conv_1 (Conv2D) (None, 8, 8, 64) 36928 _________________________________________________________________ re_lu_24 (ReLU) (None, 8, 8, 64) 0 _________________________________________________________________ conv_2 (Conv2D) (None, 8, 8, 64) 36928 _________________________________________________________________ re_lu_25 (ReLU) (None, 8, 8, 64) 0 _________________________________________________________________ flatten_7 (Flatten) (None, 4096) 0 _________________________________________________________________ dense (Dense) (None, 10) 40970 _________________________________________________________________ softmax_7 (Softmax) (None, 10) 0 ================================================================= Total params: 116,618 Trainable params: 116,618 Non-trainable params: 0 _________________________________________________________________ 1 2 3 model . compile ( loss = 'categorical_crossentropy' , optimizer = tf . keras . optimizers . SGD ( lr = 2e-9 ), metrics = [ 'accuracy' ]) 1 model . evaluate ( X_test , y_test_oh ) 313/313 [=
…
